…
I0316 12:04:35.825532 55708 net.cpp:294] The NetState phase (0) differed from the phase (1) specified by a rule in layer accuracy-top5
I0316 12:04:35.826231 55708 net.cpp:51] Initializing net from parameters: 
name: "miniGoogleNet for CIFAR10, model 3"
state {
  phase: TRAIN
  level: 0
  stage: ""
}
layer {
  name: "data"
  type: "Data"
  top: "data"
  top: "label"
  include {
    phase: TRAIN
  }
  transform_param {
    mirror: true
    crop_size: 32
    mean_value: 104
    mean_value: 117
    mean_value: 123
  }
  data_param {
    source: "../../data/cifar10/cifar10_train_leveldb"
    batch_size: 32
  }
}
layer {
  name: "conv1/3x3_s1"
  type: "Convolution"
  bottom: "data"
  top: "conv1/3x3_s1"
  param {
    lr_mult: 1
    decay_mult: 1
  }
  param {
    lr_mult: 2
    decay_mult: 0
  }
  convolution_param {
    num_output: 96
    pad: 1
    kernel_size: 3
    stride: 1
    weight_filler {
      type: "xavier"
      std: 0.1
    }
    bias_filler {
      type: "constant"
      value: 0.2
    }
  }
}
layer {
  name: "conv1/bn1"
  type: "BatchNorm"
  bottom: "conv1/3x3_s1"
  top: "conv1/3x3_s1"
  param {
    lr_mult: 0
    decay_mult: 0
  }
  param {
    lr_mult: 0
    decay_mult: 0
  }
  param {
    lr_mult: 0
    decay_mult: 0
  }
  batch_norm_param {
    use_global_stats: false
  }
}
layer {
  name: "conv1/scale1"
  type: "Scale"
  bottom: "conv1/3x3_s1"
  top: "conv1/3x3_s1"
  scale_param {
    bias_term: true
  }
}
layer {
  name: "conv1/relu1"
  type: "ReLU"
  bottom: "conv1/3x3_s1"
  top: "conv1/3x3_s1"
}
layer {
  name: "inception_2a/1x1"
  type: "Convolution"
  bottom: "conv1/3x3_s1"
  top: "inception_2a/1x1"
  param {
    lr_mult: 1
    decay_mult: 1
  }
  param {
    lr_mult: 2
    decay_mult: 0
  }
  convolution_param {
    num_output: 32
    kernel_size: 1
    weight_filler {
      type: "xavier"
      std: 0.03
    }
    bias_filler {
      type: "constant"
      value: 0.2
    }
  }
}
layer {
  name: "inception_2a/1x1/bn1"
  type: "BatchNorm"
  bottom: "inception_2a/1x1"
  top: "inception_2a/1x1"
  param {
    lr_mult: 0
    decay_mult: 0
  }
  param {
    lr_mult: 0
    decay_mult: 0
  }
  param {
    lr_mult: 0
    decay_mult: 0
  }
  batch_norm_param {
    use_global_stats: false
  }
}
layer {
  name: "inception_2a/1x1/scale1"
  type: "Scale"
  bottom: "inception_2a/1x1"
  top: "inception_2a/1x1"
  scale_param {
    bias_term: true
  }
}
layer {
  name: "inception_2a/1x1/relu1"
  type: "ReLU"
  bottom: "inception_2a/1x1"
  top: "inception_2a/1x1"
}
layer {
  name: "inception_2a/3x3"
  type: "Convolution"
  bottom: "conv1/3x3_s1"
  top: "inception_2a/3x3"
  param {
    lr_mult: 1
    decay_mult: 1
  }
  param {
    lr_mult: 2
    decay_mult: 0
  }
  convolution_param {
    num_output: 32
    pad: 1
    kernel_size: 3
    weight_filler {
      type: "xavier"
      std: 0.03
    }
    bias_filler {
      type: "constant"
      value: 0.2
    }
  }
}
layer {
  name: "inception_2a/3x3/bn1"
  type: "BatchNorm"
  bottom: "inception_2a/3x3"
  top: "inception_2a/3x3"
  param {
    lr_mult: 0
    decay_mult: 0
  }
  param {
    lr_mult: 0
    decay_mult: 0
  }
  param {
    lr_mult: 0
    decay_mult: 0
  }
  batch_norm_param {
    use_global_stats: false
  }
}
layer {
  name: "inception_2a/3x3/scale1"
  type: "Scale"
  bottom: "inception_2a/3x3"
  top: "inception_2a/3x3"
  scale_param {
    bias_term: true
  }
}
layer {
  name: "inception_2a/3x3/relu1"
  type: "ReLU"
  bottom: "inception_2a/3x3"
  top: "inception_2a/3x3"
}
layer {
  name: "inception_2a/output"
  type: "Concat"
  bottom: "inception_2a/1x1"
  bottom: "inception_2a/3x3"
  top: "inception_2a/output"
}
layer {
  name: "inception_3a/1x1"
  type: "Convolution"
  bottom: "inception_2a/output"
  top: "inception_3a/1x1"
  param {
    lr_mult: 1
    decay_mult: 1
  }
  param {
    lr_mult: 2
    decay_mult: 0
  }
  convolution_param {
    num_output: 32
    kernel_size: 1
    weight_filler {
      type: "xavier"
      std: 0.03
    }
    bias_filler {
      type: "constant"
      value: 0.2
    }
  }
}
layer {
  name: "inception_3a/1x1/bn1"
  type: "BatchNorm"
  bottom: "inception_3a/1x1"
  top: "inception_3a/1x1"
  param {
    lr_mult: 0
    decay_mult: 0
  }
  param {
    lr_mult: 0
    decay_mult: 0
  }
  param {
    lr_mult: 0
    decay_mult: 0
  }
  batch_norm_param {
    use_global_stats: false
  }
}
layer {
  name: "inception_3a/1x1/scale1"
  type: "Scale"
  bottom: "inception_3a/1x1"
  top: "inception_3a/1x1"
  scale_param {
    bias_term: true
  }
}
layer {
  name: "inception_3a/1x1/relu1"
  type: "ReLU"
  bottom: "inception_3a/1x1"
  top: "inception_3a/1x1"
}
layer {
  name: "inception_3a/3x3"
  type: "Convolution"
  bottom: "inception_2a/output"
  top: "inception_3a/3x3"
  param {
    lr_mult: 1
    decay_mult: 1
  }
  param {
    lr_mult: 2
    decay_mult: 0
  }
  convolution_param {
    num_output: 48
    pad: 1
    kernel_size: 3
    weight_filler {
      type: "xavier"
      std: 0.03
    }
    bias_filler {
      type: "constant"
      value: 0.2
    }
  }
}
layer {
  name: "inception_3a/3x3/bn1"
  type: "BatchNorm"
  bottom: "inception_3a/3x3"
  top: "inception_3a/3x3"
  param {
    lr_mult: 0
    decay_mult: 0
  }
  param {
    lr_mult: 0
    decay_mult: 0
  }
  param {
    lr_mult: 0
    decay_mult: 0
  }
  batch_norm_param {
    use_global_stats: false
  }
}
layer {
  name: "inception_3a/3x3/scale1"
  type: "Scale"
  bottom: "inception_3a/3x3"
  top: "inception_3a/3x3"
  scale_param {
    bias_term: true
  }
}
layer {
  name: "inception_3a/3x3/relu1"
  type: "ReLU"
  bottom: "inception_3a/3x3"
  top: "inception_3a/3x3"
}
layer {
  name: "inception_3a/output"
  type: "Concat"
  bottom: "inception_3a/1x1"
  bottom: "inception_3a/3x3"
  top: "inception_3a/output"
}
layer {
  name: "downsample_4/3x3_s2"
  type: "Convolution"
  bottom: "inception_3a/output"
  top: "downsample_4/3x3_s2"
  param {
    lr_mult: 1
    decay_mult: 1
  }
  param {
    lr_mult: 2
    decay_mult: 0
  }
  convolution_param {
    num_output: 80
    pad: 1
    kernel_size: 3
    stride: 2
    weight_filler {
      type: "xavier"
      std: 0.03
    }
    bias_filler {
      type: "constant"
      value: 0.2
    }
  }
}
layer {
  name: "downsample_4/3x3_s2/bn1"
  type: "BatchNorm"
  bottom: "downsample_4/3x3_s2"
  top: "downsample_4/3x3_s2"
  param {
    lr_mult: 0
    decay_mult: 0
  }
  param {
    lr_mult: 0
    decay_mult: 0
  }
  param {
    lr_mult: 0
    decay_mult: 0
  }
  batch_norm_param {
    use_global_stats: false
  }
}
layer {
  name: "downsample_4/3x3_s2/scale1"
  type: "Scale"
  bottom: "downsample_4/3x3_s2"
  top: "downsample_4/3x3_s2"
  scale_param {
    bias_term: true
  }
}
layer {
  name: "downsample_4/3x3_s2/relu1"
  type: "ReLU"
  bottom: "downsample_4/3x3_s2"
  top: "downsample_4/3x3_s2"
}
layer {
  name: "downsample_4/pool_s2"
  type: "Pooling"
  bottom: "inception_3a/output"
  top: "downsample_4/pool_s2"
  pooling_param {
    pool: MAX
    kernel_size: 3
    stride: 2
  }
}
layer {
  name: "downsample_4/output"
  type: "Concat"
  bottom: "downsample_4/3x3_s2"
  bottom: "downsample_4/pool_s2"
  top: "downsample_4/output"
}
layer {
  name: "inception_5a/1x1"
  type: "Convolution"
  bottom: "downsample_4/output"
  top: "inception_5a/1x1"
  param {
    lr_mult: 1
    decay_mult: 1
  }
  param {
    lr_mult: 2
    decay_mult: 0
  }
  convolution_param {
    num_output: 112
    kernel_size: 1
    weight_filler {
      type: "xavier"
      std: 0.03
    }
    bias_filler {
      type: "constant"
      value: 0.2
    }
  }
}
layer {
  name: "inception_5a/1x1/bn1"
  type: "BatchNorm"
  bottom: "inception_5a/1x1"
  top: "inception_5a/1x1"
  param {
    lr_mult: 0
    decay_mult: 0
  }
  param {
    lr_mult: 0
    decay_mult: 0
  }
  param {
    lr_mult: 0
    decay_mult: 0
  }
  batch_norm_param {
    use_global_stats: false
  }
}
layer {
  name: "inception_5a/1x1/scale1"
  type: "Scale"
  bottom: "inception_5a/1x1"
  top: "inception_5a/1x1"
  scale_param {
    bias_term: true
  }
}
layer {
  name: "inception_5a/1x1/relu1"
  type: "ReLU"
  bottom: "inception_5a/1x1"
  top: "inception_5a/1x1"
}
layer {
  name: "inception_5a/3x3"
  type: "Convolution"
  bottom: "downsample_4/output"
  top: "inception_5a/3x3"
  param {
    lr_mult: 1
    decay_mult: 1
  }
  param {
    lr_mult: 2
    decay_mult: 0
  }
  convolution_param {
    num_output: 48
    pad: 1
    kernel_size: 3
    weight_filler {
      type: "xavier"
      std: 0.03
    }
    bias_filler {
      type: "constant"
      value: 0.2
    }
  }
}
layer {
  name: "inception_5a/3x3/bn1"
  type: "BatchNorm"
  bottom: "inception_5a/3x3"
  top: "inception_5a/3x3"
  param {
    lr_mult: 0
    decay_mult: 0
  }
  param {
    lr_mult: 0
    decay_mult: 0
  }
  param {
    lr_mult: 0
    decay_mult: 0
  }
  batch_norm_param {
    use_global_stats: false
  }
}
layer {
  name: "inception_5a/3x3/scale1"
  type: "Scale"
  bottom: "inception_5a/3x3"
  top: "inception_5a/3x3"
  scale_param {
    bias_term: true
  }
}
layer {
  name: "inception_5a/3x3/relu1"
  type: "ReLU"
  bottom: "inception_5a/3x3"
  top: "inception_5a/3x3"
}
layer {
  name: "inception_5a/output"
  type: "Concat"
  bottom: "inception_5a/1x1"
  bottom: "inception_5a/3x3"
  top: "inception_5a/output"
}
layer {
  name: "inception_6a/1x1"
  type: "Convolution"
  bottom: "inception_5a/output"
  top: "inception_6a/1x1"
  param {
    lr_mult: 1
    decay_mult: 1
  }
  param {
    lr_mult: 2
    decay_mult: 0
  }
  convolution_param {
    num_output: 96
    kernel_size: 1
    weight_filler {
      type: "xavier"
      std: 0.03
    }
    bias_filler {
      type: "constant"
      value: 0.2
    }
  }
}
layer {
  name: "inception_6a/1x1/bn1"
  type: "BatchNorm"
  bottom: "inception_6a/1x1"
  top: "inception_6a/1x1"
  param {
    lr_mult: 0
    decay_mult: 0
  }
  param {
    lr_mult: 0
    decay_mult: 0
  }
  param {
    lr_mult: 0
    decay_mult: 0
  }
  batch_norm_param {
    use_global_stats: false
  }
}
layer {
  name: "inception_6a/1x1/scale1"
  type: "Scale"
  bottom: "inception_6a/1x1"
  top: "inception_6a/1x1"
  scale_param {
    bias_term: true
  }
}
layer {
  name: "inception_6a/1x1/relu1"
  type: "ReLU"
  bottom: "inception_6a/1x1"
  top: "inception_6a/1x1"
}
layer {
  name: "inception_6a/3x3"
  type: "Convolution"
  bottom: "inception_5a/output"
  top: "inception_6a/3x3"
  param {
    lr_mult: 1
    decay_mult: 1
  }
  param {
    lr_mult: 2
    decay_mult: 0
  }
  convolution_param {
    num_output: 64
    pad: 1
    kernel_size: 3
    weight_filler {
      type: "xavier"
      std: 0.03
    }
    bias_filler {
      type: "constant"
      value: 0.2
    }
  }
}
layer {
  name: "inception_6a/3x3/bn1"
  type: "BatchNorm"
  bottom: "inception_6a/3x3"
  top: "inception_6a/3x3"
  param {
    lr_mult: 0
    decay_mult: 0
  }
  param {
    lr_mult: 0
    decay_mult: 0
  }
  param {
    lr_mult: 0
    decay_mult: 0
  }
  batch_norm_param {
    use_global_stats: false
  }
}
layer {
  name: "inception_6a/3x3/scale1"
  type: "Scale"
  bottom: "inception_6a/3x3"
  top: "inception_6a/3x3"
  scale_param {
    bias_term: true
  }
}
layer {
  name: "inception_6a/3x3/relu1"
  type: "ReLU"
  bottom: "inception_6a/3x3"
  top: "inception_6a/3x3"
}
layer {
  name: "inception_6a/output"
  type: "Concat"
  bottom: "inception_6a/1x1"
  bottom: "inception_6a/3x3"
  top: "inception_6a/output"
}
layer {
  name: "inception_7a/1x1"
  type: "Convolution"
  bottom: "inception_6a/output"
  top: "inception_7a/1x1"
  param {
    lr_mult: 1
    decay_mult: 1
  }
  param {
    lr_mult: 2
    decay_mult: 0
  }
  convolution_param {
    num_output: 80
    kernel_size: 1
    weight_filler {
      type: "xavier"
      std: 0.03
    }
    bias_filler {
      type: "constant"
      value: 0.2
    }
  }
}
layer {
  name: "inception_7a/1x1/bn1"
  type: "BatchNorm"
  bottom: "inception_7a/1x1"
  top: "inception_7a/1x1"
  param {
    lr_mult: 0
    decay_mult: 0
  }
  param {
    lr_mult: 0
    decay_mult: 0
  }
  param {
    lr_mult: 0
    decay_mult: 0
  }
  batch_norm_param {
    use_global_stats: false
  }
}
layer {
  name: "inception_7a/1x1/scale1"
  type: "Scale"
  bottom: "inception_7a/1x1"
  top: "inception_7a/1x1"
  scale_param {
    bias_term: true
  }
}
layer {
  name: "inception_7a/1x1/relu1"
  type: "ReLU"
  bottom: "inception_7a/1x1"
  top: "inception_7a/1x1"
}
layer {
  name: "inception_7a/3x3"
  type: "Convolution"
  bottom: "inception_6a/output"
  top: "inception_7a/3x3"
  param {
    lr_mult: 1
    decay_mult: 1
  }
  param {
    lr_mult: 2
    decay_mult: 0
  }
  convolution_param {
    num_output: 80
    pad: 1
    kernel_size: 3
    weight_filler {
      type: "xavier"
      std: 0.03
    }
    bias_filler {
      type: "constant"
      value: 0.2
    }
  }
}
layer {
  name: "inception_7a/3x3/bn1"
  type: "BatchNorm"
  bottom: "inception_7a/3x3"
  top: "inception_7a/3x3"
  param {
    lr_mult: 0
    decay_mult: 0
  }
  param {
    lr_mult: 0
    decay_mult: 0
  }
  param {
    lr_mult: 0
    decay_mult: 0
  }
  batch_norm_param {
    use_global_stats: false
  }
}
layer {
  name: "inception_7a/3x3/scale1"
  type: "Scale"
  bottom: "inception_7a/3x3"
  top: "inception_7a/3x3"
  scale_param {
    bias_term: true
  }
}
layer {
  name: "inception_7a/3x3/relu1"
  type: "ReLU"
  bottom: "inception_7a/3x3"
  top: "inception_7a/3x3"
}
layer {
  name: "inception_7a/output"
  type: "Concat"
  bottom: "inception_7a/1x1"
  bottom: "inception_7a/3x3"
  top: "inception_7a/output"
}
layer {
  name: "inception_8a/1x1"
  type: "Convolution"
  bottom: "inception_7a/output"
  top: "inception_8a/1x1"
  param {
    lr_mult: 1
    decay_mult: 1
  }
  param {
    lr_mult: 2
    decay_mult: 0
  }
  convolution_param {
    num_output: 48
    kernel_size: 1
    weight_filler {
      type: "xavier"
      std: 0.03
    }
    bias_filler {
      type: "constant"
      value: 0.2
    }
  }
}
layer {
  name: "inception_8a/1x1/bn1"
  type: "BatchNorm"
  bottom: "inception_8a/1x1"
  top: "inception_8a/1x1"
  param {
    lr_mult: 0
    decay_mult: 0
  }
  param {
    lr_mult: 0
    decay_mult: 0
  }
  param {
    lr_mult: 0
    decay_mult: 0
  }
  batch_norm_param {
    use_global_stats: false
  }
}
layer {
  name: "inception_8a/1x1/scale1"
  type: "Scale"
  bottom: "inception_8a/1x1"
  top: "inception_8a/1x1"
  scale_param {
    bias_term: true
  }
}
layer {
  name: "inception_8a/1x1/relu1"
  type: "ReLU"
  bottom: "inception_8a/1x1"
  top: "inception_8a/1x1"
}
layer {
  name: "inception_8a/3x3"
  type: "Convolution"
  bottom: "inception_7a/output"
  top: "inception_8a/3x3"
  param {
    lr_mult: 1
    decay_mult: 1
  }
  param {
    lr_mult: 2
    decay_mult: 0
  }
  convolution_param {
    num_output: 96
    pad: 1
    kernel_size: 3
    weight_filler {
      type: "xavier"
      std: 0.03
    }
    bias_filler {
      type: "constant"
      value: 0.2
    }
  }
}
layer {
  name: "inception_8a/3x3/bn1"
  type: "BatchNorm"
  bottom: "inception_8a/3x3"
  top: "inception_8a/3x3"
  param {
    lr_mult: 0
    decay_mult: 0
  }
  param {
    lr_mult: 0
    decay_mult: 0
  }
  param {
    lr_mult: 0
    decay_mult: 0
  }
  batch_norm_param {
    use_global_stats: false
  }
}
layer {
  name: "inception_8a/3x3/scale1"
  type: "Scale"
  bottom: "inception_8a/3x3"
  top: "inception_8a/3x3"
  scale_param {
    bias_term: true
  }
}
layer {
  name: "inception_8a/3x3/relu1"
  type: "ReLU"
  bottom: "inception_8a/3x3"
  top: "inception_8a/3x3"
}
layer {
  name: "inception_8a/output"
  type: "Concat"
  bottom: "inception_8a/1x1"
  bottom: "inception_8a/3x3"
  top: "inception_8a/output"
}
layer {
  name: "downsample_9/3x3_s2"
  type: "Convolution"
  bottom: "inception_8a/output"
  top: "downsample_9/3x3_s2"
  param {
    lr_mult: 1
    decay_mult: 1
  }
  param {
    lr_mult: 2
    decay_mult: 0
  }
  convolution_param {
    num_output: 96
    pad: 1
    kernel_size: 3
    stride: 2
    weight_filler {
      type: "xavier"
      std: 0.03
    }
    bias_filler {
      type: "constant"
      value: 0.2
    }
  }
}
layer {
  name: "downsample_9/3x3_s2/bn1"
  type: "BatchNorm"
  bottom: "downsample_9/3x3_s2"
  top: "downsample_9/3x3_s2"
  param {
    lr_mult: 0
    decay_mult: 0
  }
  param {
    lr_mult: 0
    decay_mult: 0
  }
  param {
    lr_mult: 0
    decay_mult: 0
  }
  batch_norm_param {
    use_global_stats: false
  }
}
layer {
  name: "downsample_9/3x3_s2/scale1"
  type: "Scale"
  bottom: "downsample_9/3x3_s2"
  top: "downsample_9/3x3_s2"
  scale_param {
    bias_term: true
  }
}
layer {
  name: "downsample_9/3x3_s2/relu1"
  type: "ReLU"
  bottom: "downsample_9/3x3_s2"
  top: "downsample_9/3x3_s2"
}
layer {
  name: "downsample_9/pool_s2"
  type: "Pooling"
  bottom: "inception_8a/output"
  top: "downsample_9/pool_s2"
  pooling_param {
    pool: MAX
    kernel_size: 3
    stride: 2
  }
}
layer {
  name: "downsample_9/output"
  type: "Concat"
  bottom: "downsample_9/3x3_s2"
  bottom: "downsample_9/pool_s2"
  top: "downsample_9/output"
}
layer {
  name: "inception_10a/1x1"
  type: "Convolution"
  bottom: "downsample_9/output"
  top: "inception_10a/1x1"
  param {
    lr_mult: 1
    decay_mult: 1
  }
  param {
    lr_mult: 2
    decay_mult: 0
  }
  convolution_param {
    num_output: 176
    kernel_size: 1
    weight_filler {
      type: "xavier"
      std: 0.03
    }
    bias_filler {
      type: "constant"
      value: 0.2
    }
  }
}
layer {
  name: "inception_10a/1x1/bn1"
  type: "BatchNorm"
  bottom: "inception_10a/1x1"
  top: "inception_10a/1x1"
  param {
    lr_mult: 0
    decay_mult: 0
  }
  param {
    lr_mult: 0
    decay_mult: 0
  }
  param {
    lr_mult: 0
    decay_mult: 0
  }
  batch_norm_param {
    use_global_stats: false
  }
}
layer {
  name: "inception_10a/1x1/scale1"
  type: "Scale"
  bottom: "inception_10a/1x1"
  top: "inception_10a/1x1"
  scale_param {
    bias_term: true
  }
}
layer {
  name: "inception_10a/1x1/relu1"
  type: "ReLU"
  bottom: "inception_10a/1x1"
  top: "inception_10a/1x1"
}
layer {
  name: "inception_10a/3x3"
  type: "Convolution"
  bottom: "downsample_9/output"
  top: "inception_10a/3x3"
  param {
    lr_mult: 1
    decay_mult: 1
  }
  param {
    lr_mult: 2
    decay_mult: 0
  }
  convolution_param {
    num_output: 160
    pad: 1
    kernel_size: 3
    weight_filler {
      type: "xavier"
      std: 0.03
    }
    bias_filler {
      type: "constant"
      value: 0.2
    }
  }
}
layer {
  name: "inception_10a/3x3/bn1"
  type: "BatchNorm"
  bottom: "inception_10a/3x3"
  top: "inception_10a/3x3"
  param {
    lr_mult: 0
    decay_mult: 0
  }
  param {
    lr_mult: 0
    decay_mult: 0
  }
  param {
    lr_mult: 0
    decay_mult: 0
  }
  batch_norm_param {
    use_global_stats: false
  }
}
layer {
  name: "inception_10a/3x3/scale1"
  type: "Scale"
  bottom: "inception_10a/3x3"
  top: "inception_10a/3x3"
  scale_param {
    bias_term: true
  }
}
layer {
  name: "inception_10a/3x3/relu1"
  type: "ReLU"
  bottom: "inception_10a/3x3"
  top: "inception_10a/3x3"
}
layer {
  name: "inception_10a/output"
  type: "Concat"
  bottom: "inception_10a/1x1"
  bottom: "inception_10a/3x3"
  top: "inception_10a/output"
}
layer {
  name: "inception_11a/1x1"
  type: "Convolution"
  bottom: "inception_10a/output"
  top: "inception_11a/1x1"
  param {
    lr_mult: 1
    decay_mult: 1
  }
  param {
    lr_mult: 2
    decay_mult: 0
  }
  convolution_param {
    num_output: 176
    kernel_size: 1
    weight_filler {
      type: "xavier"
      std: 0.03
    }
    bias_filler {
      type: "constant"
      value: 0.2
    }
  }
}
layer {
  name: "inception_11a/1x1/bn1"
  type: "BatchNorm"
  bottom: "inception_11a/1x1"
  top: "inception_11a/1x1"
  param {
    lr_mult: 0
    decay_mult: 0
  }
  param {
    lr_mult: 0
    decay_mult: 0
  }
  param {
    lr_mult: 0
    decay_mult: 0
  }
  batch_norm_param {
    use_global_stats: false
  }
}
layer {
  name: "inception_11a/1x1/scale1"
  type: "Scale"
  bottom: "inception_11a/1x1"
  top: "inception_11a/1x1"
  scale_param {
    bias_term: true
  }
}
layer {
  name: "inception_11a/1x1/relu1"
  type: "ReLU"
  bottom: "inception_11a/1x1"
  top: "inception_11a/1x1"
}
layer {
  name: "inception_11a/3x3"
  type: "Convolution"
  bottom: "inception_10a/output"
  top: "inception_11a/3x3"
  param {
    lr_mult: 1
    decay_mult: 1
  }
  param {
    lr_mult: 2
    decay_mult: 0
  }
  convolution_param {
    num_output: 160
    pad: 1
    kernel_size: 3
    weight_filler {
      type: "xavier"
      std: 0.03
    }
    bias_filler {
      type: "constant"
      value: 0.2
    }
  }
}
layer {
  name: "inception_11a/3x3/bn1"
  type: "BatchNorm"
  bottom: "inception_11a/3x3"
  top: "inception_11a/3x3"
  param {
    lr_mult: 0
    decay_mult: 0
  }
  param {
    lr_mult: 0
    decay_mult: 0
  }
  param {
    lr_mult: 0
    decay_mult: 0
  }
  batch_norm_param {
    use_global_stats: false
  }
}
layer {
  name: "inception_11a/3x3/scale1"
  type: "Scale"
  bottom: "inception_11a/3x3"
  top: "inception_11a/3x3"
  scale_param {
    bias_term: true
  }
}
layer {
  name: "inception_11a/3x3/relu1"
  type: "ReLU"
  bottom: "inception_11a/3x3"
  top: "inception_11a/3x3"
}
layer {
  name: "inception_11a/output"
  type: "Concat"
  bottom: "inception_11a/1x1"
  bottom: "inception_11a/3x3"
  top: "inception_11a/output"
}
layer {
  name: "avg_pool_12/8x8_s1"
  type: "Pooling"
  bottom: "inception_11a/output"
  top: "avg_pool_12/8x8_s1"
  pooling_param {
    pool: AVE
    kernel_size: 8
    stride: 1
  }
}
layer {
  name: "drop_8x8_s1"
  type: "Dropout"
  bottom: "avg_pool_12/8x8_s1"
  top: "avg_pool_12/8x8_s1"
  dropout_param {
    dropout_ratio: 0.5
  }
}
layer {
  name: "latent"
  type: "InnerProduct"
  bottom: "avg_pool_12/8x8_s1"
  top: "latent"
  param {
    lr_mult: 1
    decay_mult: 1
  }
  param {
    lr_mult: 2
    decay_mult: 0
  }
  inner_product_param {
    num_output: 48
    weight_filler {
      type: "gaussian"
      std: 0.01
    }
    bias_filler {
      type: "constant"
      value: 0
    }
  }
}
layer {
  name: "latent_sigmoid"
  type: "Sigmoid"
  bottom: "latent"
  top: "latent_sigmoid"
}
layer {
  name: "loss_1"
  type: "K1_EuclideanLoss"
  bottom: "latent_sigmoid"
  bottom: "latent_sigmoid"
  top: "loss: forcing-binary"
  loss_weight: 1
  propagate_down: true
  propagate_down: false
}
layer {
  name: "latent_sigmoid_reshape"
  type: "Reshape"
  bottom: "latent_sigmoid"
  top: "latent_sigmoid_reshape"
  reshape_param {
    shape {
      dim: 0
      dim: 1
      dim: 1
      dim: -1
    }
  }
}
layer {
  name: "latent_sigmoid_avg"
  type: "Pooling"
  bottom: "latent_sigmoid_reshape"
  top: "latent_sigmoid_avg"
  pooling_param {
    pool: AVE
    kernel_h: 1
    kernel_w: 48
  }
}
layer {
  name: "loss_2"
  type: "K2_EuclideanLoss"
  bottom: "latent_sigmoid_avg"
  bottom: "latent_sigmoid_avg"
  top: "loss: 50%-fire-rate"
  loss_weight: 1
  propagate_down: true
  propagate_down: false
}
layer {
  name: "fc10"
  type: "InnerProduct"
  bottom: "latent_sigmoid"
  top: "fc10"
  param {
    lr_mult: 1
    decay_mult: 1
  }
  param {
    lr_mult: 2
    decay_mult: 0
  }
  inner_product_param {
    num_output: 10
    weight_filler {
      type: "xavier"
    }
    bias_filler {
      type: "constant"
      value: 1
    }
  }
}
layer {
  name: "loss"
  type: "SoftmaxWithLoss"
  bottom: "fc10"
  bottom: "label"
  top: "loss"
}
I0316 12:04:35.827121 55708 layer_factory.hpp:77] Creating layer data
I0316 12:04:36.831622 55708 db_leveldb.cpp:18] Opened leveldb ../../data/cifar10/cifar10_train_leveldb
I0316 12:04:36.831749 55708 net.cpp:84] Creating Layer data
I0316 12:04:36.833902 55708 net.cpp:380] data -> data
I0316 12:04:36.833941 55708 net.cpp:380] data -> label
I0316 12:04:36.835881 55708 data_layer.cpp:45] output data size: 32,3,32,32
I0316 12:04:36.836616 55708 net.cpp:122] Setting up data
I0316 12:04:36.836633 55708 net.cpp:129] Top shape: 32 3 32 32 (98304)
I0316 12:04:36.836639 55708 net.cpp:129] Top shape: 32 (32)
I0316 12:04:36.836642 55708 net.cpp:137] Memory required for data: 393344
I0316 12:04:36.836652 55708 layer_factory.hpp:77] Creating layer conv1/3x3_s1
I0316 12:04:36.836776 55708 net.cpp:84] Creating Layer conv1/3x3_s1
I0316 12:04:36.836784 55708 net.cpp:406] conv1/3x3_s1 <- data
I0316 12:04:36.836802 55708 net.cpp:380] conv1/3x3_s1 -> conv1/3x3_s1
I0316 12:04:36.837476 55708 net.cpp:122] Setting up conv1/3x3_s1
I0316 12:04:36.837488 55708 net.cpp:129] Top shape: 32 96 32 32 (3145728)
I0316 12:04:36.837492 55708 net.cpp:137] Memory required for data: 12976256
I0316 12:04:36.837507 55708 layer_factory.hpp:77] Creating layer conv1/bn1
I0316 12:04:36.837522 55708 net.cpp:84] Creating Layer conv1/bn1
I0316 12:04:36.837530 55708 net.cpp:406] conv1/bn1 <- conv1/3x3_s1
I0316 12:04:36.837538 55708 net.cpp:367] conv1/bn1 -> conv1/3x3_s1 (in-place)
I0316 12:04:36.837743 55708 net.cpp:122] Setting up conv1/bn1
I0316 12:04:36.837750 55708 net.cpp:129] Top shape: 32 96 32 32 (3145728)
I0316 12:04:36.837754 55708 net.cpp:137] Memory required for data: 25559168
I0316 12:04:36.837765 55708 layer_factory.hpp:77] Creating layer conv1/scale1
I0316 12:04:36.837774 55708 net.cpp:84] Creating Layer conv1/scale1
I0316 12:04:36.837778 55708 net.cpp:406] conv1/scale1 <- conv1/3x3_s1
I0316 12:04:36.837785 55708 net.cpp:367] conv1/scale1 -> conv1/3x3_s1 (in-place)
I0316 12:04:36.837821 55708 layer_factory.hpp:77] Creating layer conv1/scale1
I0316 12:04:36.837934 55708 net.cpp:122] Setting up conv1/scale1
I0316 12:04:36.837940 55708 net.cpp:129] Top shape: 32 96 32 32 (3145728)
I0316 12:04:36.837945 55708 net.cpp:137] Memory required for data: 38142080
I0316 12:04:36.837952 55708 layer_factory.hpp:77] Creating layer conv1/relu1
I0316 12:04:36.837958 55708 net.cpp:84] Creating Layer conv1/relu1
I0316 12:04:36.837962 55708 net.cpp:406] conv1/relu1 <- conv1/3x3_s1
I0316 12:04:36.837970 55708 net.cpp:367] conv1/relu1 -> conv1/3x3_s1 (in-place)
I0316 12:04:36.837975 55708 net.cpp:122] Setting up conv1/relu1
I0316 12:04:36.837980 55708 net.cpp:129] Top shape: 32 96 32 32 (3145728)
I0316 12:04:36.837987 55708 net.cpp:137] Memory required for data: 50724992
I0316 12:04:36.837991 55708 layer_factory.hpp:77] Creating layer conv1/3x3_s1_conv1/relu1_0_split
I0316 12:04:36.837997 55708 net.cpp:84] Creating Layer conv1/3x3_s1_conv1/relu1_0_split
I0316 12:04:36.838001 55708 net.cpp:406] conv1/3x3_s1_conv1/relu1_0_split <- conv1/3x3_s1
I0316 12:04:36.838007 55708 net.cpp:380] conv1/3x3_s1_conv1/relu1_0_split -> conv1/3x3_s1_conv1/relu1_0_split_0
I0316 12:04:36.838016 55708 net.cpp:380] conv1/3x3_s1_conv1/relu1_0_split -> conv1/3x3_s1_conv1/relu1_0_split_1
I0316 12:04:36.838042 55708 net.cpp:122] Setting up conv1/3x3_s1_conv1/relu1_0_split
I0316 12:04:36.838047 55708 net.cpp:129] Top shape: 32 96 32 32 (3145728)
I0316 12:04:36.838052 55708 net.cpp:129] Top shape: 32 96 32 32 (3145728)
I0316 12:04:36.838057 55708 net.cpp:137] Memory required for data: 75890816
I0316 12:04:36.838059 55708 layer_factory.hpp:77] Creating layer inception_2a/1x1
I0316 12:04:36.838068 55708 net.cpp:84] Creating Layer inception_2a/1x1
I0316 12:04:36.838071 55708 net.cpp:406] inception_2a/1x1 <- conv1/3x3_s1_conv1/relu1_0_split_0
I0316 12:04:36.838078 55708 net.cpp:380] inception_2a/1x1 -> inception_2a/1x1
I0316 12:04:36.838299 55708 net.cpp:122] Setting up inception_2a/1x1
I0316 12:04:36.838306 55708 net.cpp:129] Top shape: 32 32 32 32 (1048576)
I0316 12:04:36.838310 55708 net.cpp:137] Memory required for data: 80085120
I0316 12:04:36.838320 55708 layer_factory.hpp:77] Creating layer inception_2a/1x1/bn1
I0316 12:04:36.838340 55708 net.cpp:84] Creating Layer inception_2a/1x1/bn1
I0316 12:04:36.838344 55708 net.cpp:406] inception_2a/1x1/bn1 <- inception_2a/1x1
I0316 12:04:36.838351 55708 net.cpp:367] inception_2a/1x1/bn1 -> inception_2a/1x1 (in-place)
I0316 12:04:36.838515 55708 net.cpp:122] Setting up inception_2a/1x1/bn1
I0316 12:04:36.838522 55708 net.cpp:129] Top shape: 32 32 32 32 (1048576)
I0316 12:04:36.838526 55708 net.cpp:137] Memory required for data: 84279424
I0316 12:04:36.838532 55708 layer_factory.hpp:77] Creating layer inception_2a/1x1/scale1
I0316 12:04:36.838541 55708 net.cpp:84] Creating Layer inception_2a/1x1/scale1
I0316 12:04:36.838546 55708 net.cpp:406] inception_2a/1x1/scale1 <- inception_2a/1x1
I0316 12:04:36.838551 55708 net.cpp:367] inception_2a/1x1/scale1 -> inception_2a/1x1 (in-place)
I0316 12:04:36.838582 55708 layer_factory.hpp:77] Creating layer inception_2a/1x1/scale1
I0316 12:04:36.838675 55708 net.cpp:122] Setting up inception_2a/1x1/scale1
I0316 12:04:36.838682 55708 net.cpp:129] Top shape: 32 32 32 32 (1048576)
I0316 12:04:36.838686 55708 net.cpp:137] Memory required for data: 88473728
I0316 12:04:36.838691 55708 layer_factory.hpp:77] Creating layer inception_2a/1x1/relu1
I0316 12:04:36.838697 55708 net.cpp:84] Creating Layer inception_2a/1x1/relu1
I0316 12:04:36.838701 55708 net.cpp:406] inception_2a/1x1/relu1 <- inception_2a/1x1
I0316 12:04:36.838708 55708 net.cpp:367] inception_2a/1x1/relu1 -> inception_2a/1x1 (in-place)
I0316 12:04:36.838713 55708 net.cpp:122] Setting up inception_2a/1x1/relu1
I0316 12:04:36.838719 55708 net.cpp:129] Top shape: 32 32 32 32 (1048576)
I0316 12:04:36.838722 55708 net.cpp:137] Memory required for data: 92668032
I0316 12:04:36.838726 55708 layer_factory.hpp:77] Creating layer inception_2a/3x3
I0316 12:04:36.838735 55708 net.cpp:84] Creating Layer inception_2a/3x3
I0316 12:04:36.838739 55708 net.cpp:406] inception_2a/3x3 <- conv1/3x3_s1_conv1/relu1_0_split_1
I0316 12:04:36.838745 55708 net.cpp:380] inception_2a/3x3 -> inception_2a/3x3
I0316 12:04:36.839138 55708 net.cpp:122] Setting up inception_2a/3x3
I0316 12:04:36.839145 55708 net.cpp:129] Top shape: 32 32 32 32 (1048576)
I0316 12:04:36.839149 55708 net.cpp:137] Memory required for data: 96862336
I0316 12:04:36.839155 55708 layer_factory.hpp:77] Creating layer inception_2a/3x3/bn1
I0316 12:04:36.839161 55708 net.cpp:84] Creating Layer inception_2a/3x3/bn1
I0316 12:04:36.839164 55708 net.cpp:406] inception_2a/3x3/bn1 <- inception_2a/3x3
I0316 12:04:36.839172 55708 net.cpp:367] inception_2a/3x3/bn1 -> inception_2a/3x3 (in-place)
I0316 12:04:36.839334 55708 net.cpp:122] Setting up inception_2a/3x3/bn1
I0316 12:04:36.839341 55708 net.cpp:129] Top shape: 32 32 32 32 (1048576)
I0316 12:04:36.839344 55708 net.cpp:137] Memory required for data: 101056640
I0316 12:04:36.839356 55708 layer_factory.hpp:77] Creating layer inception_2a/3x3/scale1
I0316 12:04:36.839361 55708 net.cpp:84] Creating Layer inception_2a/3x3/scale1
I0316 12:04:36.839365 55708 net.cpp:406] inception_2a/3x3/scale1 <- inception_2a/3x3
I0316 12:04:36.839371 55708 net.cpp:367] inception_2a/3x3/scale1 -> inception_2a/3x3 (in-place)
I0316 12:04:36.839402 55708 layer_factory.hpp:77] Creating layer inception_2a/3x3/scale1
I0316 12:04:36.839494 55708 net.cpp:122] Setting up inception_2a/3x3/scale1
I0316 12:04:36.839502 55708 net.cpp:129] Top shape: 32 32 32 32 (1048576)
I0316 12:04:36.839505 55708 net.cpp:137] Memory required for data: 105250944
I0316 12:04:36.839512 55708 layer_factory.hpp:77] Creating layer inception_2a/3x3/relu1
I0316 12:04:36.839517 55708 net.cpp:84] Creating Layer inception_2a/3x3/relu1
I0316 12:04:36.839520 55708 net.cpp:406] inception_2a/3x3/relu1 <- inception_2a/3x3
I0316 12:04:36.839525 55708 net.cpp:367] inception_2a/3x3/relu1 -> inception_2a/3x3 (in-place)
I0316 12:04:36.839531 55708 net.cpp:122] Setting up inception_2a/3x3/relu1
I0316 12:04:36.839536 55708 net.cpp:129] Top shape: 32 32 32 32 (1048576)
I0316 12:04:36.839540 55708 net.cpp:137] Memory required for data: 109445248
I0316 12:04:36.839543 55708 layer_factory.hpp:77] Creating layer inception_2a/output
I0316 12:04:36.839557 55708 net.cpp:84] Creating Layer inception_2a/output
I0316 12:04:36.839561 55708 net.cpp:406] inception_2a/output <- inception_2a/1x1
I0316 12:04:36.839565 55708 net.cpp:406] inception_2a/output <- inception_2a/3x3
I0316 12:04:36.839570 55708 net.cpp:380] inception_2a/output -> inception_2a/output
I0316 12:04:36.839586 55708 net.cpp:122] Setting up inception_2a/output
I0316 12:04:36.839592 55708 net.cpp:129] Top shape: 32 64 32 32 (2097152)
I0316 12:04:36.839596 55708 net.cpp:137] Memory required for data: 117833856
I0316 12:04:36.839598 55708 layer_factory.hpp:77] Creating layer inception_2a/output_inception_2a/output_0_split
I0316 12:04:36.839607 55708 net.cpp:84] Creating Layer inception_2a/output_inception_2a/output_0_split
I0316 12:04:36.839609 55708 net.cpp:406] inception_2a/output_inception_2a/output_0_split <- inception_2a/output
I0316 12:04:36.839617 55708 net.cpp:380] inception_2a/output_inception_2a/output_0_split -> inception_2a/output_inception_2a/output_0_split_0
I0316 12:04:36.839624 55708 net.cpp:380] inception_2a/output_inception_2a/output_0_split -> inception_2a/output_inception_2a/output_0_split_1
I0316 12:04:36.839653 55708 net.cpp:122] Setting up inception_2a/output_inception_2a/output_0_split
I0316 12:04:36.839658 55708 net.cpp:129] Top shape: 32 64 32 32 (2097152)
I0316 12:04:36.839663 55708 net.cpp:129] Top shape: 32 64 32 32 (2097152)
I0316 12:04:36.839668 55708 net.cpp:137] Memory required for data: 134611072
I0316 12:04:36.839673 55708 layer_factory.hpp:77] Creating layer inception_3a/1x1
I0316 12:04:36.839682 55708 net.cpp:84] Creating Layer inception_3a/1x1
I0316 12:04:36.839686 55708 net.cpp:406] inception_3a/1x1 <- inception_2a/output_inception_2a/output_0_split_0
I0316 12:04:36.839694 55708 net.cpp:380] inception_3a/1x1 -> inception_3a/1x1
I0316 12:04:36.839910 55708 net.cpp:122] Setting up inception_3a/1x1
I0316 12:04:36.839917 55708 net.cpp:129] Top shape: 32 32 32 32 (1048576)
I0316 12:04:36.839920 55708 net.cpp:137] Memory required for data: 138805376
I0316 12:04:36.839927 55708 layer_factory.hpp:77] Creating layer inception_3a/1x1/bn1
I0316 12:04:36.839934 55708 net.cpp:84] Creating Layer inception_3a/1x1/bn1
I0316 12:04:36.839937 55708 net.cpp:406] inception_3a/1x1/bn1 <- inception_3a/1x1
I0316 12:04:36.839943 55708 net.cpp:367] inception_3a/1x1/bn1 -> inception_3a/1x1 (in-place)
I0316 12:04:36.840103 55708 net.cpp:122] Setting up inception_3a/1x1/bn1
I0316 12:04:36.840113 55708 net.cpp:129] Top shape: 32 32 32 32 (1048576)
I0316 12:04:36.840116 55708 net.cpp:137] Memory required for data: 142999680
I0316 12:04:36.840123 55708 layer_factory.hpp:77] Creating layer inception_3a/1x1/scale1
I0316 12:04:36.840128 55708 net.cpp:84] Creating Layer inception_3a/1x1/scale1
I0316 12:04:36.840133 55708 net.cpp:406] inception_3a/1x1/scale1 <- inception_3a/1x1
I0316 12:04:36.840138 55708 net.cpp:367] inception_3a/1x1/scale1 -> inception_3a/1x1 (in-place)
I0316 12:04:36.840167 55708 layer_factory.hpp:77] Creating layer inception_3a/1x1/scale1
I0316 12:04:36.840256 55708 net.cpp:122] Setting up inception_3a/1x1/scale1
I0316 12:04:36.840265 55708 net.cpp:129] Top shape: 32 32 32 32 (1048576)
I0316 12:04:36.840267 55708 net.cpp:137] Memory required for data: 147193984
I0316 12:04:36.840273 55708 layer_factory.hpp:77] Creating layer inception_3a/1x1/relu1
I0316 12:04:36.840278 55708 net.cpp:84] Creating Layer inception_3a/1x1/relu1
I0316 12:04:36.840283 55708 net.cpp:406] inception_3a/1x1/relu1 <- inception_3a/1x1
I0316 12:04:36.840287 55708 net.cpp:367] inception_3a/1x1/relu1 -> inception_3a/1x1 (in-place)
I0316 12:04:36.840293 55708 net.cpp:122] Setting up inception_3a/1x1/relu1
I0316 12:04:36.840297 55708 net.cpp:129] Top shape: 32 32 32 32 (1048576)
I0316 12:04:36.840302 55708 net.cpp:137] Memory required for data: 151388288
I0316 12:04:36.840306 55708 layer_factory.hpp:77] Creating layer inception_3a/3x3
I0316 12:04:36.840313 55708 net.cpp:84] Creating Layer inception_3a/3x3
I0316 12:04:36.840317 55708 net.cpp:406] inception_3a/3x3 <- inception_2a/output_inception_2a/output_0_split_1
I0316 12:04:36.840332 55708 net.cpp:380] inception_3a/3x3 -> inception_3a/3x3
I0316 12:04:36.840757 55708 net.cpp:122] Setting up inception_3a/3x3
I0316 12:04:36.840766 55708 net.cpp:129] Top shape: 32 48 32 32 (1572864)
I0316 12:04:36.840770 55708 net.cpp:137] Memory required for data: 157679744
I0316 12:04:36.840777 55708 layer_factory.hpp:77] Creating layer inception_3a/3x3/bn1
I0316 12:04:36.840785 55708 net.cpp:84] Creating Layer inception_3a/3x3/bn1
I0316 12:04:36.840787 55708 net.cpp:406] inception_3a/3x3/bn1 <- inception_3a/3x3
I0316 12:04:36.840793 55708 net.cpp:367] inception_3a/3x3/bn1 -> inception_3a/3x3 (in-place)
I0316 12:04:36.840958 55708 net.cpp:122] Setting up inception_3a/3x3/bn1
I0316 12:04:36.840966 55708 net.cpp:129] Top shape: 32 48 32 32 (1572864)
I0316 12:04:36.840970 55708 net.cpp:137] Memory required for data: 163971200
I0316 12:04:36.840981 55708 layer_factory.hpp:77] Creating layer inception_3a/3x3/scale1
I0316 12:04:36.840988 55708 net.cpp:84] Creating Layer inception_3a/3x3/scale1
I0316 12:04:36.840992 55708 net.cpp:406] inception_3a/3x3/scale1 <- inception_3a/3x3
I0316 12:04:36.840998 55708 net.cpp:367] inception_3a/3x3/scale1 -> inception_3a/3x3 (in-place)
I0316 12:04:36.841028 55708 layer_factory.hpp:77] Creating layer inception_3a/3x3/scale1
I0316 12:04:36.841146 55708 net.cpp:122] Setting up inception_3a/3x3/scale1
I0316 12:04:36.841154 55708 net.cpp:129] Top shape: 32 48 32 32 (1572864)
I0316 12:04:36.841158 55708 net.cpp:137] Memory required for data: 170262656
I0316 12:04:36.841166 55708 layer_factory.hpp:77] Creating layer inception_3a/3x3/relu1
I0316 12:04:36.841172 55708 net.cpp:84] Creating Layer inception_3a/3x3/relu1
I0316 12:04:36.841176 55708 net.cpp:406] inception_3a/3x3/relu1 <- inception_3a/3x3
I0316 12:04:36.841183 55708 net.cpp:367] inception_3a/3x3/relu1 -> inception_3a/3x3 (in-place)
I0316 12:04:36.841188 55708 net.cpp:122] Setting up inception_3a/3x3/relu1
I0316 12:04:36.841197 55708 net.cpp:129] Top shape: 32 48 32 32 (1572864)
I0316 12:04:36.841200 55708 net.cpp:137] Memory required for data: 176554112
I0316 12:04:36.841207 55708 layer_factory.hpp:77] Creating layer inception_3a/output
I0316 12:04:36.841212 55708 net.cpp:84] Creating Layer inception_3a/output
I0316 12:04:36.841217 55708 net.cpp:406] inception_3a/output <- inception_3a/1x1
I0316 12:04:36.841224 55708 net.cpp:406] inception_3a/output <- inception_3a/3x3
I0316 12:04:36.841229 55708 net.cpp:380] inception_3a/output -> inception_3a/output
I0316 12:04:36.841280 55708 net.cpp:122] Setting up inception_3a/output
I0316 12:04:36.841290 55708 net.cpp:129] Top shape: 32 80 32 32 (2621440)
I0316 12:04:36.841293 55708 net.cpp:137] Memory required for data: 187039872
I0316 12:04:36.841297 55708 layer_factory.hpp:77] Creating layer inception_3a/output_inception_3a/output_0_split
I0316 12:04:36.841306 55708 net.cpp:84] Creating Layer inception_3a/output_inception_3a/output_0_split
I0316 12:04:36.841311 55708 net.cpp:406] inception_3a/output_inception_3a/output_0_split <- inception_3a/output
I0316 12:04:36.841316 55708 net.cpp:380] inception_3a/output_inception_3a/output_0_split -> inception_3a/output_inception_3a/output_0_split_0
I0316 12:04:36.841325 55708 net.cpp:380] inception_3a/output_inception_3a/output_0_split -> inception_3a/output_inception_3a/output_0_split_1
I0316 12:04:36.841359 55708 net.cpp:122] Setting up inception_3a/output_inception_3a/output_0_split
I0316 12:04:36.841368 55708 net.cpp:129] Top shape: 32 80 32 32 (2621440)
I0316 12:04:36.841372 55708 net.cpp:129] Top shape: 32 80 32 32 (2621440)
I0316 12:04:36.841377 55708 net.cpp:137] Memory required for data: 208011392
I0316 12:04:36.841380 55708 layer_factory.hpp:77] Creating layer downsample_4/3x3_s2
I0316 12:04:36.841389 55708 net.cpp:84] Creating Layer downsample_4/3x3_s2
I0316 12:04:36.841394 55708 net.cpp:406] downsample_4/3x3_s2 <- inception_3a/output_inception_3a/output_0_split_0
I0316 12:04:36.841399 55708 net.cpp:380] downsample_4/3x3_s2 -> downsample_4/3x3_s2
I0316 12:04:36.843398 55708 net.cpp:122] Setting up downsample_4/3x3_s2
I0316 12:04:36.843426 55708 net.cpp:129] Top shape: 32 80 16 16 (655360)
I0316 12:04:36.843430 55708 net.cpp:137] Memory required for data: 210632832
I0316 12:04:36.843438 55708 layer_factory.hpp:77] Creating layer downsample_4/3x3_s2/bn1
I0316 12:04:36.843446 55708 net.cpp:84] Creating Layer downsample_4/3x3_s2/bn1
I0316 12:04:36.843451 55708 net.cpp:406] downsample_4/3x3_s2/bn1 <- downsample_4/3x3_s2
I0316 12:04:36.843458 55708 net.cpp:367] downsample_4/3x3_s2/bn1 -> downsample_4/3x3_s2 (in-place)
I0316 12:04:36.843614 55708 net.cpp:122] Setting up downsample_4/3x3_s2/bn1
I0316 12:04:36.843621 55708 net.cpp:129] Top shape: 32 80 16 16 (655360)
I0316 12:04:36.843626 55708 net.cpp:137] Memory required for data: 213254272
I0316 12:04:36.843632 55708 layer_factory.hpp:77] Creating layer downsample_4/3x3_s2/scale1
I0316 12:04:36.843637 55708 net.cpp:84] Creating Layer downsample_4/3x3_s2/scale1
I0316 12:04:36.843641 55708 net.cpp:406] downsample_4/3x3_s2/scale1 <- downsample_4/3x3_s2
I0316 12:04:36.843647 55708 net.cpp:367] downsample_4/3x3_s2/scale1 -> downsample_4/3x3_s2 (in-place)
I0316 12:04:36.843680 55708 layer_factory.hpp:77] Creating layer downsample_4/3x3_s2/scale1
I0316 12:04:36.843780 55708 net.cpp:122] Setting up downsample_4/3x3_s2/scale1
I0316 12:04:36.843786 55708 net.cpp:129] Top shape: 32 80 16 16 (655360)
I0316 12:04:36.843791 55708 net.cpp:137] Memory required for data: 215875712
I0316 12:04:36.843796 55708 layer_factory.hpp:77] Creating layer downsample_4/3x3_s2/relu1
I0316 12:04:36.843801 55708 net.cpp:84] Creating Layer downsample_4/3x3_s2/relu1
I0316 12:04:36.843804 55708 net.cpp:406] downsample_4/3x3_s2/relu1 <- downsample_4/3x3_s2
I0316 12:04:36.843809 55708 net.cpp:367] downsample_4/3x3_s2/relu1 -> downsample_4/3x3_s2 (in-place)
I0316 12:04:36.843814 55708 net.cpp:122] Setting up downsample_4/3x3_s2/relu1
I0316 12:04:36.843818 55708 net.cpp:129] Top shape: 32 80 16 16 (655360)
I0316 12:04:36.843822 55708 net.cpp:137] Memory required for data: 218497152
I0316 12:04:36.843827 55708 layer_factory.hpp:77] Creating layer downsample_4/pool_s2
I0316 12:04:36.843839 55708 net.cpp:84] Creating Layer downsample_4/pool_s2
I0316 12:04:36.843844 55708 net.cpp:406] downsample_4/pool_s2 <- inception_3a/output_inception_3a/output_0_split_1
I0316 12:04:36.843849 55708 net.cpp:380] downsample_4/pool_s2 -> downsample_4/pool_s2
I0316 12:04:36.843895 55708 net.cpp:122] Setting up downsample_4/pool_s2
I0316 12:04:36.843902 55708 net.cpp:129] Top shape: 32 80 16 16 (655360)
I0316 12:04:36.843906 55708 net.cpp:137] Memory required for data: 221118592
I0316 12:04:36.843909 55708 layer_factory.hpp:77] Creating layer downsample_4/output
I0316 12:04:36.843915 55708 net.cpp:84] Creating Layer downsample_4/output
I0316 12:04:36.843919 55708 net.cpp:406] downsample_4/output <- downsample_4/3x3_s2
I0316 12:04:36.843922 55708 net.cpp:406] downsample_4/output <- downsample_4/pool_s2
I0316 12:04:36.843927 55708 net.cpp:380] downsample_4/output -> downsample_4/output
I0316 12:04:36.843945 55708 net.cpp:122] Setting up downsample_4/output
I0316 12:04:36.843950 55708 net.cpp:129] Top shape: 32 160 16 16 (1310720)
I0316 12:04:36.843955 55708 net.cpp:137] Memory required for data: 226361472
I0316 12:04:36.843957 55708 layer_factory.hpp:77] Creating layer downsample_4/output_downsample_4/output_0_split
I0316 12:04:36.843969 55708 net.cpp:84] Creating Layer downsample_4/output_downsample_4/output_0_split
I0316 12:04:36.843973 55708 net.cpp:406] downsample_4/output_downsample_4/output_0_split <- downsample_4/output
I0316 12:04:36.843978 55708 net.cpp:380] downsample_4/output_downsample_4/output_0_split -> downsample_4/output_downsample_4/output_0_split_0
I0316 12:04:36.843984 55708 net.cpp:380] downsample_4/output_downsample_4/output_0_split -> downsample_4/output_downsample_4/output_0_split_1
I0316 12:04:36.844010 55708 net.cpp:122] Setting up downsample_4/output_downsample_4/output_0_split
I0316 12:04:36.844017 55708 net.cpp:129] Top shape: 32 160 16 16 (1310720)
I0316 12:04:36.844022 55708 net.cpp:129] Top shape: 32 160 16 16 (1310720)
I0316 12:04:36.844033 55708 net.cpp:137] Memory required for data: 236847232
I0316 12:04:36.844036 55708 layer_factory.hpp:77] Creating layer inception_5a/1x1
I0316 12:04:36.844045 55708 net.cpp:84] Creating Layer inception_5a/1x1
I0316 12:04:36.844048 55708 net.cpp:406] inception_5a/1x1 <- downsample_4/output_downsample_4/output_0_split_0
I0316 12:04:36.844053 55708 net.cpp:380] inception_5a/1x1 -> inception_5a/1x1
I0316 12:04:36.844449 55708 net.cpp:122] Setting up inception_5a/1x1
I0316 12:04:36.844457 55708 net.cpp:129] Top shape: 32 112 16 16 (917504)
I0316 12:04:36.844460 55708 net.cpp:137] Memory required for data: 240517248
I0316 12:04:36.844466 55708 layer_factory.hpp:77] Creating layer inception_5a/1x1/bn1
I0316 12:04:36.844475 55708 net.cpp:84] Creating Layer inception_5a/1x1/bn1
I0316 12:04:36.844478 55708 net.cpp:406] inception_5a/1x1/bn1 <- inception_5a/1x1
I0316 12:04:36.844485 55708 net.cpp:367] inception_5a/1x1/bn1 -> inception_5a/1x1 (in-place)
I0316 12:04:36.844633 55708 net.cpp:122] Setting up inception_5a/1x1/bn1
I0316 12:04:36.844641 55708 net.cpp:129] Top shape: 32 112 16 16 (917504)
I0316 12:04:36.844645 55708 net.cpp:137] Memory required for data: 244187264
I0316 12:04:36.844650 55708 layer_factory.hpp:77] Creating layer inception_5a/1x1/scale1
I0316 12:04:36.844655 55708 net.cpp:84] Creating Layer inception_5a/1x1/scale1
I0316 12:04:36.844660 55708 net.cpp:406] inception_5a/1x1/scale1 <- inception_5a/1x1
I0316 12:04:36.844664 55708 net.cpp:367] inception_5a/1x1/scale1 -> inception_5a/1x1 (in-place)
I0316 12:04:36.844692 55708 layer_factory.hpp:77] Creating layer inception_5a/1x1/scale1
I0316 12:04:36.844784 55708 net.cpp:122] Setting up inception_5a/1x1/scale1
I0316 12:04:36.844792 55708 net.cpp:129] Top shape: 32 112 16 16 (917504)
I0316 12:04:36.844795 55708 net.cpp:137] Memory required for data: 247857280
I0316 12:04:36.844800 55708 layer_factory.hpp:77] Creating layer inception_5a/1x1/relu1
I0316 12:04:36.844805 55708 net.cpp:84] Creating Layer inception_5a/1x1/relu1
I0316 12:04:36.844810 55708 net.cpp:406] inception_5a/1x1/relu1 <- inception_5a/1x1
I0316 12:04:36.844813 55708 net.cpp:367] inception_5a/1x1/relu1 -> inception_5a/1x1 (in-place)
I0316 12:04:36.844818 55708 net.cpp:122] Setting up inception_5a/1x1/relu1
I0316 12:04:36.844822 55708 net.cpp:129] Top shape: 32 112 16 16 (917504)
I0316 12:04:36.844826 55708 net.cpp:137] Memory required for data: 251527296
I0316 12:04:36.844830 55708 layer_factory.hpp:77] Creating layer inception_5a/3x3
I0316 12:04:36.844835 55708 net.cpp:84] Creating Layer inception_5a/3x3
I0316 12:04:36.844839 55708 net.cpp:406] inception_5a/3x3 <- downsample_4/output_downsample_4/output_0_split_1
I0316 12:04:36.844846 55708 net.cpp:380] inception_5a/3x3 -> inception_5a/3x3
I0316 12:04:36.845520 55708 net.cpp:122] Setting up inception_5a/3x3
I0316 12:04:36.845528 55708 net.cpp:129] Top shape: 32 48 16 16 (393216)
I0316 12:04:36.845531 55708 net.cpp:137] Memory required for data: 253100160
I0316 12:04:36.845537 55708 layer_factory.hpp:77] Creating layer inception_5a/3x3/bn1
I0316 12:04:36.845543 55708 net.cpp:84] Creating Layer inception_5a/3x3/bn1
I0316 12:04:36.845546 55708 net.cpp:406] inception_5a/3x3/bn1 <- inception_5a/3x3
I0316 12:04:36.845551 55708 net.cpp:367] inception_5a/3x3/bn1 -> inception_5a/3x3 (in-place)
I0316 12:04:36.845705 55708 net.cpp:122] Setting up inception_5a/3x3/bn1
I0316 12:04:36.845710 55708 net.cpp:129] Top shape: 32 48 16 16 (393216)
I0316 12:04:36.845713 55708 net.cpp:137] Memory required for data: 254673024
I0316 12:04:36.845719 55708 layer_factory.hpp:77] Creating layer inception_5a/3x3/scale1
I0316 12:04:36.845726 55708 net.cpp:84] Creating Layer inception_5a/3x3/scale1
I0316 12:04:36.845729 55708 net.cpp:406] inception_5a/3x3/scale1 <- inception_5a/3x3
I0316 12:04:36.845734 55708 net.cpp:367] inception_5a/3x3/scale1 -> inception_5a/3x3 (in-place)
I0316 12:04:36.845762 55708 layer_factory.hpp:77] Creating layer inception_5a/3x3/scale1
I0316 12:04:36.845850 55708 net.cpp:122] Setting up inception_5a/3x3/scale1
I0316 12:04:36.845870 55708 net.cpp:129] Top shape: 32 48 16 16 (393216)
I0316 12:04:36.845872 55708 net.cpp:137] Memory required for data: 256245888
I0316 12:04:36.845877 55708 layer_factory.hpp:77] Creating layer inception_5a/3x3/relu1
I0316 12:04:36.845882 55708 net.cpp:84] Creating Layer inception_5a/3x3/relu1
I0316 12:04:36.845886 55708 net.cpp:406] inception_5a/3x3/relu1 <- inception_5a/3x3
I0316 12:04:36.845891 55708 net.cpp:367] inception_5a/3x3/relu1 -> inception_5a/3x3 (in-place)
I0316 12:04:36.845896 55708 net.cpp:122] Setting up inception_5a/3x3/relu1
I0316 12:04:36.845901 55708 net.cpp:129] Top shape: 32 48 16 16 (393216)
I0316 12:04:36.845904 55708 net.cpp:137] Memory required for data: 257818752
I0316 12:04:36.845907 55708 layer_factory.hpp:77] Creating layer inception_5a/output
I0316 12:04:36.845911 55708 net.cpp:84] Creating Layer inception_5a/output
I0316 12:04:36.845916 55708 net.cpp:406] inception_5a/output <- inception_5a/1x1
I0316 12:04:36.845919 55708 net.cpp:406] inception_5a/output <- inception_5a/3x3
I0316 12:04:36.845924 55708 net.cpp:380] inception_5a/output -> inception_5a/output
I0316 12:04:36.845938 55708 net.cpp:122] Setting up inception_5a/output
I0316 12:04:36.845944 55708 net.cpp:129] Top shape: 32 160 16 16 (1310720)
I0316 12:04:36.845947 55708 net.cpp:137] Memory required for data: 263061632
I0316 12:04:36.845950 55708 layer_factory.hpp:77] Creating layer inception_5a/output_inception_5a/output_0_split
I0316 12:04:36.845955 55708 net.cpp:84] Creating Layer inception_5a/output_inception_5a/output_0_split
I0316 12:04:36.845959 55708 net.cpp:406] inception_5a/output_inception_5a/output_0_split <- inception_5a/output
I0316 12:04:36.845964 55708 net.cpp:380] inception_5a/output_inception_5a/output_0_split -> inception_5a/output_inception_5a/output_0_split_0
I0316 12:04:36.845970 55708 net.cpp:380] inception_5a/output_inception_5a/output_0_split -> inception_5a/output_inception_5a/output_0_split_1
I0316 12:04:36.845994 55708 net.cpp:122] Setting up inception_5a/output_inception_5a/output_0_split
I0316 12:04:36.846000 55708 net.cpp:129] Top shape: 32 160 16 16 (1310720)
I0316 12:04:36.846004 55708 net.cpp:129] Top shape: 32 160 16 16 (1310720)
I0316 12:04:36.846007 55708 net.cpp:137] Memory required for data: 273547392
I0316 12:04:36.846010 55708 layer_factory.hpp:77] Creating layer inception_6a/1x1
I0316 12:04:36.846019 55708 net.cpp:84] Creating Layer inception_6a/1x1
I0316 12:04:36.846022 55708 net.cpp:406] inception_6a/1x1 <- inception_5a/output_inception_5a/output_0_split_0
I0316 12:04:36.846027 55708 net.cpp:380] inception_6a/1x1 -> inception_6a/1x1
I0316 12:04:36.846308 55708 net.cpp:122] Setting up inception_6a/1x1
I0316 12:04:36.846316 55708 net.cpp:129] Top shape: 32 96 16 16 (786432)
I0316 12:04:36.846319 55708 net.cpp:137] Memory required for data: 276693120
I0316 12:04:36.846324 55708 layer_factory.hpp:77] Creating layer inception_6a/1x1/bn1
I0316 12:04:36.846330 55708 net.cpp:84] Creating Layer inception_6a/1x1/bn1
I0316 12:04:36.846334 55708 net.cpp:406] inception_6a/1x1/bn1 <- inception_6a/1x1
I0316 12:04:36.846339 55708 net.cpp:367] inception_6a/1x1/bn1 -> inception_6a/1x1 (in-place)
I0316 12:04:36.846525 55708 net.cpp:122] Setting up inception_6a/1x1/bn1
I0316 12:04:36.846534 55708 net.cpp:129] Top shape: 32 96 16 16 (786432)
I0316 12:04:36.846537 55708 net.cpp:137] Memory required for data: 279838848
I0316 12:04:36.846544 55708 layer_factory.hpp:77] Creating layer inception_6a/1x1/scale1
I0316 12:04:36.846549 55708 net.cpp:84] Creating Layer inception_6a/1x1/scale1
I0316 12:04:36.846552 55708 net.cpp:406] inception_6a/1x1/scale1 <- inception_6a/1x1
I0316 12:04:36.846557 55708 net.cpp:367] inception_6a/1x1/scale1 -> inception_6a/1x1 (in-place)
I0316 12:04:36.846587 55708 layer_factory.hpp:77] Creating layer inception_6a/1x1/scale1
I0316 12:04:36.846688 55708 net.cpp:122] Setting up inception_6a/1x1/scale1
I0316 12:04:36.846695 55708 net.cpp:129] Top shape: 32 96 16 16 (786432)
I0316 12:04:36.846699 55708 net.cpp:137] Memory required for data: 282984576
I0316 12:04:36.846714 55708 layer_factory.hpp:77] Creating layer inception_6a/1x1/relu1
I0316 12:04:36.846720 55708 net.cpp:84] Creating Layer inception_6a/1x1/relu1
I0316 12:04:36.846724 55708 net.cpp:406] inception_6a/1x1/relu1 <- inception_6a/1x1
I0316 12:04:36.846729 55708 net.cpp:367] inception_6a/1x1/relu1 -> inception_6a/1x1 (in-place)
I0316 12:04:36.846733 55708 net.cpp:122] Setting up inception_6a/1x1/relu1
I0316 12:04:36.846737 55708 net.cpp:129] Top shape: 32 96 16 16 (786432)
I0316 12:04:36.846740 55708 net.cpp:137] Memory required for data: 286130304
I0316 12:04:36.846745 55708 layer_factory.hpp:77] Creating layer inception_6a/3x3
I0316 12:04:36.846751 55708 net.cpp:84] Creating Layer inception_6a/3x3
I0316 12:04:36.846755 55708 net.cpp:406] inception_6a/3x3 <- inception_5a/output_inception_5a/output_0_split_1
I0316 12:04:36.846760 55708 net.cpp:380] inception_6a/3x3 -> inception_6a/3x3
I0316 12:04:36.847524 55708 net.cpp:122] Setting up inception_6a/3x3
I0316 12:04:36.847532 55708 net.cpp:129] Top shape: 32 64 16 16 (524288)
I0316 12:04:36.847537 55708 net.cpp:137] Memory required for data: 288227456
I0316 12:04:36.847548 55708 layer_factory.hpp:77] Creating layer inception_6a/3x3/bn1
I0316 12:04:36.847555 55708 net.cpp:84] Creating Layer inception_6a/3x3/bn1
I0316 12:04:36.847559 55708 net.cpp:406] inception_6a/3x3/bn1 <- inception_6a/3x3
I0316 12:04:36.847564 55708 net.cpp:367] inception_6a/3x3/bn1 -> inception_6a/3x3 (in-place)
I0316 12:04:36.847735 55708 net.cpp:122] Setting up inception_6a/3x3/bn1
I0316 12:04:36.847743 55708 net.cpp:129] Top shape: 32 64 16 16 (524288)
I0316 12:04:36.847746 55708 net.cpp:137] Memory required for data: 290324608
I0316 12:04:36.847754 55708 layer_factory.hpp:77] Creating layer inception_6a/3x3/scale1
I0316 12:04:36.847760 55708 net.cpp:84] Creating Layer inception_6a/3x3/scale1
I0316 12:04:36.847764 55708 net.cpp:406] inception_6a/3x3/scale1 <- inception_6a/3x3
I0316 12:04:36.847769 55708 net.cpp:367] inception_6a/3x3/scale1 -> inception_6a/3x3 (in-place)
I0316 12:04:36.847800 55708 layer_factory.hpp:77] Creating layer inception_6a/3x3/scale1
I0316 12:04:36.847887 55708 net.cpp:122] Setting up inception_6a/3x3/scale1
I0316 12:04:36.847893 55708 net.cpp:129] Top shape: 32 64 16 16 (524288)
I0316 12:04:36.847896 55708 net.cpp:137] Memory required for data: 292421760
I0316 12:04:36.847901 55708 layer_factory.hpp:77] Creating layer inception_6a/3x3/relu1
I0316 12:04:36.847906 55708 net.cpp:84] Creating Layer inception_6a/3x3/relu1
I0316 12:04:36.847910 55708 net.cpp:406] inception_6a/3x3/relu1 <- inception_6a/3x3
I0316 12:04:36.847914 55708 net.cpp:367] inception_6a/3x3/relu1 -> inception_6a/3x3 (in-place)
I0316 12:04:36.847919 55708 net.cpp:122] Setting up inception_6a/3x3/relu1
I0316 12:04:36.847923 55708 net.cpp:129] Top shape: 32 64 16 16 (524288)
I0316 12:04:36.847927 55708 net.cpp:137] Memory required for data: 294518912
I0316 12:04:36.847929 55708 layer_factory.hpp:77] Creating layer inception_6a/output
I0316 12:04:36.847934 55708 net.cpp:84] Creating Layer inception_6a/output
I0316 12:04:36.847937 55708 net.cpp:406] inception_6a/output <- inception_6a/1x1
I0316 12:04:36.847941 55708 net.cpp:406] inception_6a/output <- inception_6a/3x3
I0316 12:04:36.847946 55708 net.cpp:380] inception_6a/output -> inception_6a/output
I0316 12:04:36.847959 55708 net.cpp:122] Setting up inception_6a/output
I0316 12:04:36.847963 55708 net.cpp:129] Top shape: 32 160 16 16 (1310720)
I0316 12:04:36.847967 55708 net.cpp:137] Memory required for data: 299761792
I0316 12:04:36.847970 55708 layer_factory.hpp:77] Creating layer inception_6a/output_inception_6a/output_0_split
I0316 12:04:36.847975 55708 net.cpp:84] Creating Layer inception_6a/output_inception_6a/output_0_split
I0316 12:04:36.847978 55708 net.cpp:406] inception_6a/output_inception_6a/output_0_split <- inception_6a/output
I0316 12:04:36.847983 55708 net.cpp:380] inception_6a/output_inception_6a/output_0_split -> inception_6a/output_inception_6a/output_0_split_0
I0316 12:04:36.847990 55708 net.cpp:380] inception_6a/output_inception_6a/output_0_split -> inception_6a/output_inception_6a/output_0_split_1
I0316 12:04:36.848024 55708 net.cpp:122] Setting up inception_6a/output_inception_6a/output_0_split
I0316 12:04:36.848032 55708 net.cpp:129] Top shape: 32 160 16 16 (1310720)
I0316 12:04:36.848037 55708 net.cpp:129] Top shape: 32 160 16 16 (1310720)
I0316 12:04:36.848039 55708 net.cpp:137] Memory required for data: 310247552
I0316 12:04:36.848042 55708 layer_factory.hpp:77] Creating layer inception_7a/1x1
I0316 12:04:36.848050 55708 net.cpp:84] Creating Layer inception_7a/1x1
I0316 12:04:36.848054 55708 net.cpp:406] inception_7a/1x1 <- inception_6a/output_inception_6a/output_0_split_0
I0316 12:04:36.848059 55708 net.cpp:380] inception_7a/1x1 -> inception_7a/1x1
I0316 12:04:36.848322 55708 net.cpp:122] Setting up inception_7a/1x1
I0316 12:04:36.848328 55708 net.cpp:129] Top shape: 32 80 16 16 (655360)
I0316 12:04:36.848332 55708 net.cpp:137] Memory required for data: 312868992
I0316 12:04:36.848337 55708 layer_factory.hpp:77] Creating layer inception_7a/1x1/bn1
I0316 12:04:36.848342 55708 net.cpp:84] Creating Layer inception_7a/1x1/bn1
I0316 12:04:36.848346 55708 net.cpp:406] inception_7a/1x1/bn1 <- inception_7a/1x1
I0316 12:04:36.848351 55708 net.cpp:367] inception_7a/1x1/bn1 -> inception_7a/1x1 (in-place)
I0316 12:04:36.848522 55708 net.cpp:122] Setting up inception_7a/1x1/bn1
I0316 12:04:36.848536 55708 net.cpp:129] Top shape: 32 80 16 16 (655360)
I0316 12:04:36.848541 55708 net.cpp:137] Memory required for data: 315490432
I0316 12:04:36.848551 55708 layer_factory.hpp:77] Creating layer inception_7a/1x1/scale1
I0316 12:04:36.848557 55708 net.cpp:84] Creating Layer inception_7a/1x1/scale1
I0316 12:04:36.848562 55708 net.cpp:406] inception_7a/1x1/scale1 <- inception_7a/1x1
I0316 12:04:36.848568 55708 net.cpp:367] inception_7a/1x1/scale1 -> inception_7a/1x1 (in-place)
I0316 12:04:36.848723 55708 layer_factory.hpp:77] Creating layer inception_7a/1x1/scale1
I0316 12:04:36.848815 55708 net.cpp:122] Setting up inception_7a/1x1/scale1
I0316 12:04:36.848824 55708 net.cpp:129] Top shape: 32 80 16 16 (655360)
I0316 12:04:36.848827 55708 net.cpp:137] Memory required for data: 318111872
I0316 12:04:36.848834 55708 layer_factory.hpp:77] Creating layer inception_7a/1x1/relu1
I0316 12:04:36.848839 55708 net.cpp:84] Creating Layer inception_7a/1x1/relu1
I0316 12:04:36.848842 55708 net.cpp:406] inception_7a/1x1/relu1 <- inception_7a/1x1
I0316 12:04:36.848846 55708 net.cpp:367] inception_7a/1x1/relu1 -> inception_7a/1x1 (in-place)
I0316 12:04:36.848852 55708 net.cpp:122] Setting up inception_7a/1x1/relu1
I0316 12:04:36.848856 55708 net.cpp:129] Top shape: 32 80 16 16 (655360)
I0316 12:04:36.848860 55708 net.cpp:137] Memory required for data: 320733312
I0316 12:04:36.848862 55708 layer_factory.hpp:77] Creating layer inception_7a/3x3
I0316 12:04:36.848870 55708 net.cpp:84] Creating Layer inception_7a/3x3
I0316 12:04:36.848873 55708 net.cpp:406] inception_7a/3x3 <- inception_6a/output_inception_6a/output_0_split_1
I0316 12:04:36.848878 55708 net.cpp:380] inception_7a/3x3 -> inception_7a/3x3
I0316 12:04:36.849786 55708 net.cpp:122] Setting up inception_7a/3x3
I0316 12:04:36.849794 55708 net.cpp:129] Top shape: 32 80 16 16 (655360)
I0316 12:04:36.849798 55708 net.cpp:137] Memory required for data: 323354752
I0316 12:04:36.849813 55708 layer_factory.hpp:77] Creating layer inception_7a/3x3/bn1
I0316 12:04:36.849819 55708 net.cpp:84] Creating Layer inception_7a/3x3/bn1
I0316 12:04:36.849824 55708 net.cpp:406] inception_7a/3x3/bn1 <- inception_7a/3x3
I0316 12:04:36.849828 55708 net.cpp:367] inception_7a/3x3/bn1 -> inception_7a/3x3 (in-place)
I0316 12:04:36.849980 55708 net.cpp:122] Setting up inception_7a/3x3/bn1
I0316 12:04:36.849987 55708 net.cpp:129] Top shape: 32 80 16 16 (655360)
I0316 12:04:36.849992 55708 net.cpp:137] Memory required for data: 325976192
I0316 12:04:36.849998 55708 layer_factory.hpp:77] Creating layer inception_7a/3x3/scale1
I0316 12:04:36.850003 55708 net.cpp:84] Creating Layer inception_7a/3x3/scale1
I0316 12:04:36.850005 55708 net.cpp:406] inception_7a/3x3/scale1 <- inception_7a/3x3
I0316 12:04:36.850028 55708 net.cpp:367] inception_7a/3x3/scale1 -> inception_7a/3x3 (in-place)
I0316 12:04:36.850056 55708 layer_factory.hpp:77] Creating layer inception_7a/3x3/scale1
I0316 12:04:36.850145 55708 net.cpp:122] Setting up inception_7a/3x3/scale1
I0316 12:04:36.850152 55708 net.cpp:129] Top shape: 32 80 16 16 (655360)
I0316 12:04:36.850157 55708 net.cpp:137] Memory required for data: 328597632
I0316 12:04:36.850162 55708 layer_factory.hpp:77] Creating layer inception_7a/3x3/relu1
I0316 12:04:36.850167 55708 net.cpp:84] Creating Layer inception_7a/3x3/relu1
I0316 12:04:36.850169 55708 net.cpp:406] inception_7a/3x3/relu1 <- inception_7a/3x3
I0316 12:04:36.850175 55708 net.cpp:367] inception_7a/3x3/relu1 -> inception_7a/3x3 (in-place)
I0316 12:04:36.850179 55708 net.cpp:122] Setting up inception_7a/3x3/relu1
I0316 12:04:36.850183 55708 net.cpp:129] Top shape: 32 80 16 16 (655360)
I0316 12:04:36.850188 55708 net.cpp:137] Memory required for data: 331219072
I0316 12:04:36.850191 55708 layer_factory.hpp:77] Creating layer inception_7a/output
I0316 12:04:36.850195 55708 net.cpp:84] Creating Layer inception_7a/output
I0316 12:04:36.850198 55708 net.cpp:406] inception_7a/output <- inception_7a/1x1
I0316 12:04:36.850203 55708 net.cpp:406] inception_7a/output <- inception_7a/3x3
I0316 12:04:36.850208 55708 net.cpp:380] inception_7a/output -> inception_7a/output
I0316 12:04:36.850239 55708 net.cpp:122] Setting up inception_7a/output
I0316 12:04:36.850243 55708 net.cpp:129] Top shape: 32 160 16 16 (1310720)
I0316 12:04:36.850246 55708 net.cpp:137] Memory required for data: 336461952
I0316 12:04:36.850252 55708 layer_factory.hpp:77] Creating layer inception_7a/output_inception_7a/output_0_split
I0316 12:04:36.850257 55708 net.cpp:84] Creating Layer inception_7a/output_inception_7a/output_0_split
I0316 12:04:36.850261 55708 net.cpp:406] inception_7a/output_inception_7a/output_0_split <- inception_7a/output
I0316 12:04:36.850265 55708 net.cpp:380] inception_7a/output_inception_7a/output_0_split -> inception_7a/output_inception_7a/output_0_split_0
I0316 12:04:36.850272 55708 net.cpp:380] inception_7a/output_inception_7a/output_0_split -> inception_7a/output_inception_7a/output_0_split_1
I0316 12:04:36.850297 55708 net.cpp:122] Setting up inception_7a/output_inception_7a/output_0_split
I0316 12:04:36.850306 55708 net.cpp:129] Top shape: 32 160 16 16 (1310720)
I0316 12:04:36.850309 55708 net.cpp:129] Top shape: 32 160 16 16 (1310720)
I0316 12:04:36.850313 55708 net.cpp:137] Memory required for data: 346947712
I0316 12:04:36.850317 55708 layer_factory.hpp:77] Creating layer inception_8a/1x1
I0316 12:04:36.850322 55708 net.cpp:84] Creating Layer inception_8a/1x1
I0316 12:04:36.850325 55708 net.cpp:406] inception_8a/1x1 <- inception_7a/output_inception_7a/output_0_split_0
I0316 12:04:36.850332 55708 net.cpp:380] inception_8a/1x1 -> inception_8a/1x1
I0316 12:04:36.850562 55708 net.cpp:122] Setting up inception_8a/1x1
I0316 12:04:36.850569 55708 net.cpp:129] Top shape: 32 48 16 16 (393216)
I0316 12:04:36.850571 55708 net.cpp:137] Memory required for data: 348520576
I0316 12:04:36.850577 55708 layer_factory.hpp:77] Creating layer inception_8a/1x1/bn1
I0316 12:04:36.850592 55708 net.cpp:84] Creating Layer inception_8a/1x1/bn1
I0316 12:04:36.850596 55708 net.cpp:406] inception_8a/1x1/bn1 <- inception_8a/1x1
I0316 12:04:36.850601 55708 net.cpp:367] inception_8a/1x1/bn1 -> inception_8a/1x1 (in-place)
I0316 12:04:36.850751 55708 net.cpp:122] Setting up inception_8a/1x1/bn1
I0316 12:04:36.850759 55708 net.cpp:129] Top shape: 32 48 16 16 (393216)
I0316 12:04:36.850761 55708 net.cpp:137] Memory required for data: 350093440
I0316 12:04:36.850767 55708 layer_factory.hpp:77] Creating layer inception_8a/1x1/scale1
I0316 12:04:36.850772 55708 net.cpp:84] Creating Layer inception_8a/1x1/scale1
I0316 12:04:36.850775 55708 net.cpp:406] inception_8a/1x1/scale1 <- inception_8a/1x1
I0316 12:04:36.850780 55708 net.cpp:367] inception_8a/1x1/scale1 -> inception_8a/1x1 (in-place)
I0316 12:04:36.850806 55708 layer_factory.hpp:77] Creating layer inception_8a/1x1/scale1
I0316 12:04:36.850901 55708 net.cpp:122] Setting up inception_8a/1x1/scale1
I0316 12:04:36.850908 55708 net.cpp:129] Top shape: 32 48 16 16 (393216)
I0316 12:04:36.850912 55708 net.cpp:137] Memory required for data: 351666304
I0316 12:04:36.850919 55708 layer_factory.hpp:77] Creating layer inception_8a/1x1/relu1
I0316 12:04:36.850925 55708 net.cpp:84] Creating Layer inception_8a/1x1/relu1
I0316 12:04:36.850929 55708 net.cpp:406] inception_8a/1x1/relu1 <- inception_8a/1x1
I0316 12:04:36.850932 55708 net.cpp:367] inception_8a/1x1/relu1 -> inception_8a/1x1 (in-place)
I0316 12:04:36.850937 55708 net.cpp:122] Setting up inception_8a/1x1/relu1
I0316 12:04:36.850942 55708 net.cpp:129] Top shape: 32 48 16 16 (393216)
I0316 12:04:36.850945 55708 net.cpp:137] Memory required for data: 353239168
I0316 12:04:36.850948 55708 layer_factory.hpp:77] Creating layer inception_8a/3x3
I0316 12:04:36.850955 55708 net.cpp:84] Creating Layer inception_8a/3x3
I0316 12:04:36.850958 55708 net.cpp:406] inception_8a/3x3 <- inception_7a/output_inception_7a/output_0_split_1
I0316 12:04:36.850963 55708 net.cpp:380] inception_8a/3x3 -> inception_8a/3x3
I0316 12:04:36.853360 55708 net.cpp:122] Setting up inception_8a/3x3
I0316 12:04:36.853377 55708 net.cpp:129] Top shape: 32 96 16 16 (786432)
I0316 12:04:36.853381 55708 net.cpp:137] Memory required for data: 356384896
I0316 12:04:36.853389 55708 layer_factory.hpp:77] Creating layer inception_8a/3x3/bn1
I0316 12:04:36.853395 55708 net.cpp:84] Creating Layer inception_8a/3x3/bn1
I0316 12:04:36.853399 55708 net.cpp:406] inception_8a/3x3/bn1 <- inception_8a/3x3
I0316 12:04:36.853406 55708 net.cpp:367] inception_8a/3x3/bn1 -> inception_8a/3x3 (in-place)
I0316 12:04:36.853569 55708 net.cpp:122] Setting up inception_8a/3x3/bn1
I0316 12:04:36.853576 55708 net.cpp:129] Top shape: 32 96 16 16 (786432)
I0316 12:04:36.853579 55708 net.cpp:137] Memory required for data: 359530624
I0316 12:04:36.853586 55708 layer_factory.hpp:77] Creating layer inception_8a/3x3/scale1
I0316 12:04:36.853591 55708 net.cpp:84] Creating Layer inception_8a/3x3/scale1
I0316 12:04:36.853595 55708 net.cpp:406] inception_8a/3x3/scale1 <- inception_8a/3x3
I0316 12:04:36.853600 55708 net.cpp:367] inception_8a/3x3/scale1 -> inception_8a/3x3 (in-place)
I0316 12:04:36.853629 55708 layer_factory.hpp:77] Creating layer inception_8a/3x3/scale1
I0316 12:04:36.853720 55708 net.cpp:122] Setting up inception_8a/3x3/scale1
I0316 12:04:36.853726 55708 net.cpp:129] Top shape: 32 96 16 16 (786432)
I0316 12:04:36.853729 55708 net.cpp:137] Memory required for data: 362676352
I0316 12:04:36.853735 55708 layer_factory.hpp:77] Creating layer inception_8a/3x3/relu1
I0316 12:04:36.853739 55708 net.cpp:84] Creating Layer inception_8a/3x3/relu1
I0316 12:04:36.853742 55708 net.cpp:406] inception_8a/3x3/relu1 <- inception_8a/3x3
I0316 12:04:36.853746 55708 net.cpp:367] inception_8a/3x3/relu1 -> inception_8a/3x3 (in-place)
I0316 12:04:36.853752 55708 net.cpp:122] Setting up inception_8a/3x3/relu1
I0316 12:04:36.853756 55708 net.cpp:129] Top shape: 32 96 16 16 (786432)
I0316 12:04:36.853760 55708 net.cpp:137] Memory required for data: 365822080
I0316 12:04:36.853762 55708 layer_factory.hpp:77] Creating layer inception_8a/output
I0316 12:04:36.853767 55708 net.cpp:84] Creating Layer inception_8a/output
I0316 12:04:36.853771 55708 net.cpp:406] inception_8a/output <- inception_8a/1x1
I0316 12:04:36.853775 55708 net.cpp:406] inception_8a/output <- inception_8a/3x3
I0316 12:04:36.853780 55708 net.cpp:380] inception_8a/output -> inception_8a/output
I0316 12:04:36.853794 55708 net.cpp:122] Setting up inception_8a/output
I0316 12:04:36.853798 55708 net.cpp:129] Top shape: 32 144 16 16 (1179648)
I0316 12:04:36.853801 55708 net.cpp:137] Memory required for data: 370540672
I0316 12:04:36.853804 55708 layer_factory.hpp:77] Creating layer inception_8a/output_inception_8a/output_0_split
I0316 12:04:36.853811 55708 net.cpp:84] Creating Layer inception_8a/output_inception_8a/output_0_split
I0316 12:04:36.853813 55708 net.cpp:406] inception_8a/output_inception_8a/output_0_split <- inception_8a/output
I0316 12:04:36.853830 55708 net.cpp:380] inception_8a/output_inception_8a/output_0_split -> inception_8a/output_inception_8a/output_0_split_0
I0316 12:04:36.853837 55708 net.cpp:380] inception_8a/output_inception_8a/output_0_split -> inception_8a/output_inception_8a/output_0_split_1
I0316 12:04:36.853863 55708 net.cpp:122] Setting up inception_8a/output_inception_8a/output_0_split
I0316 12:04:36.853871 55708 net.cpp:129] Top shape: 32 144 16 16 (1179648)
I0316 12:04:36.853875 55708 net.cpp:129] Top shape: 32 144 16 16 (1179648)
I0316 12:04:36.853878 55708 net.cpp:137] Memory required for data: 379977856
I0316 12:04:36.853883 55708 layer_factory.hpp:77] Creating layer downsample_9/3x3_s2
I0316 12:04:36.853890 55708 net.cpp:84] Creating Layer downsample_9/3x3_s2
I0316 12:04:36.853893 55708 net.cpp:406] downsample_9/3x3_s2 <- inception_8a/output_inception_8a/output_0_split_0
I0316 12:04:36.853899 55708 net.cpp:380] downsample_9/3x3_s2 -> downsample_9/3x3_s2
I0316 12:04:36.854890 55708 net.cpp:122] Setting up downsample_9/3x3_s2
I0316 12:04:36.854899 55708 net.cpp:129] Top shape: 32 96 8 8 (196608)
I0316 12:04:36.854903 55708 net.cpp:137] Memory required for data: 380764288
I0316 12:04:36.854908 55708 layer_factory.hpp:77] Creating layer downsample_9/3x3_s2/bn1
I0316 12:04:36.854915 55708 net.cpp:84] Creating Layer downsample_9/3x3_s2/bn1
I0316 12:04:36.854918 55708 net.cpp:406] downsample_9/3x3_s2/bn1 <- downsample_9/3x3_s2
I0316 12:04:36.854924 55708 net.cpp:367] downsample_9/3x3_s2/bn1 -> downsample_9/3x3_s2 (in-place)
I0316 12:04:36.855087 55708 net.cpp:122] Setting up downsample_9/3x3_s2/bn1
I0316 12:04:36.855094 55708 net.cpp:129] Top shape: 32 96 8 8 (196608)
I0316 12:04:36.855098 55708 net.cpp:137] Memory required for data: 381550720
I0316 12:04:36.855103 55708 layer_factory.hpp:77] Creating layer downsample_9/3x3_s2/scale1
I0316 12:04:36.855108 55708 net.cpp:84] Creating Layer downsample_9/3x3_s2/scale1
I0316 12:04:36.855113 55708 net.cpp:406] downsample_9/3x3_s2/scale1 <- downsample_9/3x3_s2
I0316 12:04:36.855116 55708 net.cpp:367] downsample_9/3x3_s2/scale1 -> downsample_9/3x3_s2 (in-place)
I0316 12:04:36.855145 55708 layer_factory.hpp:77] Creating layer downsample_9/3x3_s2/scale1
I0316 12:04:36.855239 55708 net.cpp:122] Setting up downsample_9/3x3_s2/scale1
I0316 12:04:36.855247 55708 net.cpp:129] Top shape: 32 96 8 8 (196608)
I0316 12:04:36.855249 55708 net.cpp:137] Memory required for data: 382337152
I0316 12:04:36.855254 55708 layer_factory.hpp:77] Creating layer downsample_9/3x3_s2/relu1
I0316 12:04:36.855259 55708 net.cpp:84] Creating Layer downsample_9/3x3_s2/relu1
I0316 12:04:36.855263 55708 net.cpp:406] downsample_9/3x3_s2/relu1 <- downsample_9/3x3_s2
I0316 12:04:36.855268 55708 net.cpp:367] downsample_9/3x3_s2/relu1 -> downsample_9/3x3_s2 (in-place)
I0316 12:04:36.855273 55708 net.cpp:122] Setting up downsample_9/3x3_s2/relu1
I0316 12:04:36.855278 55708 net.cpp:129] Top shape: 32 96 8 8 (196608)
I0316 12:04:36.855280 55708 net.cpp:137] Memory required for data: 383123584
I0316 12:04:36.855283 55708 layer_factory.hpp:77] Creating layer downsample_9/pool_s2
I0316 12:04:36.855288 55708 net.cpp:84] Creating Layer downsample_9/pool_s2
I0316 12:04:36.855293 55708 net.cpp:406] downsample_9/pool_s2 <- inception_8a/output_inception_8a/output_0_split_1
I0316 12:04:36.855298 55708 net.cpp:380] downsample_9/pool_s2 -> downsample_9/pool_s2
I0316 12:04:36.855326 55708 net.cpp:122] Setting up downsample_9/pool_s2
I0316 12:04:36.855331 55708 net.cpp:129] Top shape: 32 144 8 8 (294912)
I0316 12:04:36.855334 55708 net.cpp:137] Memory required for data: 384303232
I0316 12:04:36.855338 55708 layer_factory.hpp:77] Creating layer downsample_9/output
I0316 12:04:36.855342 55708 net.cpp:84] Creating Layer downsample_9/output
I0316 12:04:36.855345 55708 net.cpp:406] downsample_9/output <- downsample_9/3x3_s2
I0316 12:04:36.855350 55708 net.cpp:406] downsample_9/output <- downsample_9/pool_s2
I0316 12:04:36.855355 55708 net.cpp:380] downsample_9/output -> downsample_9/output
I0316 12:04:36.855389 55708 net.cpp:122] Setting up downsample_9/output
I0316 12:04:36.855393 55708 net.cpp:129] Top shape: 32 240 8 8 (491520)
I0316 12:04:36.855396 55708 net.cpp:137] Memory required for data: 386269312
I0316 12:04:36.855401 55708 layer_factory.hpp:77] Creating layer downsample_9/output_downsample_9/output_0_split
I0316 12:04:36.855405 55708 net.cpp:84] Creating Layer downsample_9/output_downsample_9/output_0_split
I0316 12:04:36.855408 55708 net.cpp:406] downsample_9/output_downsample_9/output_0_split <- downsample_9/output
I0316 12:04:36.855412 55708 net.cpp:380] downsample_9/output_downsample_9/output_0_split -> downsample_9/output_downsample_9/output_0_split_0
I0316 12:04:36.855419 55708 net.cpp:380] downsample_9/output_downsample_9/output_0_split -> downsample_9/output_downsample_9/output_0_split_1
I0316 12:04:36.855444 55708 net.cpp:122] Setting up downsample_9/output_downsample_9/output_0_split
I0316 12:04:36.855451 55708 net.cpp:129] Top shape: 32 240 8 8 (491520)
I0316 12:04:36.855455 55708 net.cpp:129] Top shape: 32 240 8 8 (491520)
I0316 12:04:36.855459 55708 net.cpp:137] Memory required for data: 390201472
I0316 12:04:36.855463 55708 layer_factory.hpp:77] Creating layer inception_10a/1x1
I0316 12:04:36.855469 55708 net.cpp:84] Creating Layer inception_10a/1x1
I0316 12:04:36.855473 55708 net.cpp:406] inception_10a/1x1 <- downsample_9/output_downsample_9/output_0_split_0
I0316 12:04:36.855479 55708 net.cpp:380] inception_10a/1x1 -> inception_10a/1x1
I0316 12:04:36.855927 55708 net.cpp:122] Setting up inception_10a/1x1
I0316 12:04:36.855933 55708 net.cpp:129] Top shape: 32 176 8 8 (360448)
I0316 12:04:36.855937 55708 net.cpp:137] Memory required for data: 391643264
I0316 12:04:36.855942 55708 layer_factory.hpp:77] Creating layer inception_10a/1x1/bn1
I0316 12:04:36.855952 55708 net.cpp:84] Creating Layer inception_10a/1x1/bn1
I0316 12:04:36.855955 55708 net.cpp:406] inception_10a/1x1/bn1 <- inception_10a/1x1
I0316 12:04:36.855960 55708 net.cpp:367] inception_10a/1x1/bn1 -> inception_10a/1x1 (in-place)
I0316 12:04:36.856123 55708 net.cpp:122] Setting up inception_10a/1x1/bn1
I0316 12:04:36.856130 55708 net.cpp:129] Top shape: 32 176 8 8 (360448)
I0316 12:04:36.856132 55708 net.cpp:137] Memory required for data: 393085056
I0316 12:04:36.856139 55708 layer_factory.hpp:77] Creating layer inception_10a/1x1/scale1
I0316 12:04:36.856144 55708 net.cpp:84] Creating Layer inception_10a/1x1/scale1
I0316 12:04:36.856148 55708 net.cpp:406] inception_10a/1x1/scale1 <- inception_10a/1x1
I0316 12:04:36.856151 55708 net.cpp:367] inception_10a/1x1/scale1 -> inception_10a/1x1 (in-place)
I0316 12:04:36.856179 55708 layer_factory.hpp:77] Creating layer inception_10a/1x1/scale1
I0316 12:04:36.856274 55708 net.cpp:122] Setting up inception_10a/1x1/scale1
I0316 12:04:36.856281 55708 net.cpp:129] Top shape: 32 176 8 8 (360448)
I0316 12:04:36.856283 55708 net.cpp:137] Memory required for data: 394526848
I0316 12:04:36.856288 55708 layer_factory.hpp:77] Creating layer inception_10a/1x1/relu1
I0316 12:04:36.856294 55708 net.cpp:84] Creating Layer inception_10a/1x1/relu1
I0316 12:04:36.856297 55708 net.cpp:406] inception_10a/1x1/relu1 <- inception_10a/1x1
I0316 12:04:36.856302 55708 net.cpp:367] inception_10a/1x1/relu1 -> inception_10a/1x1 (in-place)
I0316 12:04:36.856305 55708 net.cpp:122] Setting up inception_10a/1x1/relu1
I0316 12:04:36.856310 55708 net.cpp:129] Top shape: 32 176 8 8 (360448)
I0316 12:04:36.856313 55708 net.cpp:137] Memory required for data: 395968640
I0316 12:04:36.856317 55708 layer_factory.hpp:77] Creating layer inception_10a/3x3
I0316 12:04:36.856323 55708 net.cpp:84] Creating Layer inception_10a/3x3
I0316 12:04:36.856328 55708 net.cpp:406] inception_10a/3x3 <- downsample_9/output_downsample_9/output_0_split_1
I0316 12:04:36.856333 55708 net.cpp:380] inception_10a/3x3 -> inception_10a/3x3
I0316 12:04:36.859901 55708 net.cpp:122] Setting up inception_10a/3x3
I0316 12:04:36.859918 55708 net.cpp:129] Top shape: 32 160 8 8 (327680)
I0316 12:04:36.859922 55708 net.cpp:137] Memory required for data: 397279360
I0316 12:04:36.859946 55708 layer_factory.hpp:77] Creating layer inception_10a/3x3/bn1
I0316 12:04:36.859954 55708 net.cpp:84] Creating Layer inception_10a/3x3/bn1
I0316 12:04:36.859958 55708 net.cpp:406] inception_10a/3x3/bn1 <- inception_10a/3x3
I0316 12:04:36.859964 55708 net.cpp:367] inception_10a/3x3/bn1 -> inception_10a/3x3 (in-place)
I0316 12:04:36.860129 55708 net.cpp:122] Setting up inception_10a/3x3/bn1
I0316 12:04:36.860136 55708 net.cpp:129] Top shape: 32 160 8 8 (327680)
I0316 12:04:36.860141 55708 net.cpp:137] Memory required for data: 398590080
I0316 12:04:36.860147 55708 layer_factory.hpp:77] Creating layer inception_10a/3x3/scale1
I0316 12:04:36.860152 55708 net.cpp:84] Creating Layer inception_10a/3x3/scale1
I0316 12:04:36.860157 55708 net.cpp:406] inception_10a/3x3/scale1 <- inception_10a/3x3
I0316 12:04:36.860160 55708 net.cpp:367] inception_10a/3x3/scale1 -> inception_10a/3x3 (in-place)
I0316 12:04:36.860190 55708 layer_factory.hpp:77] Creating layer inception_10a/3x3/scale1
I0316 12:04:36.860285 55708 net.cpp:122] Setting up inception_10a/3x3/scale1
I0316 12:04:36.860292 55708 net.cpp:129] Top shape: 32 160 8 8 (327680)
I0316 12:04:36.860296 55708 net.cpp:137] Memory required for data: 399900800
I0316 12:04:36.860302 55708 layer_factory.hpp:77] Creating layer inception_10a/3x3/relu1
I0316 12:04:36.860307 55708 net.cpp:84] Creating Layer inception_10a/3x3/relu1
I0316 12:04:36.860311 55708 net.cpp:406] inception_10a/3x3/relu1 <- inception_10a/3x3
I0316 12:04:36.860314 55708 net.cpp:367] inception_10a/3x3/relu1 -> inception_10a/3x3 (in-place)
I0316 12:04:36.860320 55708 net.cpp:122] Setting up inception_10a/3x3/relu1
I0316 12:04:36.860325 55708 net.cpp:129] Top shape: 32 160 8 8 (327680)
I0316 12:04:36.860327 55708 net.cpp:137] Memory required for data: 401211520
I0316 12:04:36.860330 55708 layer_factory.hpp:77] Creating layer inception_10a/output
I0316 12:04:36.860335 55708 net.cpp:84] Creating Layer inception_10a/output
I0316 12:04:36.860338 55708 net.cpp:406] inception_10a/output <- inception_10a/1x1
I0316 12:04:36.860342 55708 net.cpp:406] inception_10a/output <- inception_10a/3x3
I0316 12:04:36.860347 55708 net.cpp:380] inception_10a/output -> inception_10a/output
I0316 12:04:36.860374 55708 net.cpp:122] Setting up inception_10a/output
I0316 12:04:36.860379 55708 net.cpp:129] Top shape: 32 336 8 8 (688128)
I0316 12:04:36.860383 55708 net.cpp:137] Memory required for data: 403964032
I0316 12:04:36.860385 55708 layer_factory.hpp:77] Creating layer inception_10a/output_inception_10a/output_0_split
I0316 12:04:36.860391 55708 net.cpp:84] Creating Layer inception_10a/output_inception_10a/output_0_split
I0316 12:04:36.860394 55708 net.cpp:406] inception_10a/output_inception_10a/output_0_split <- inception_10a/output
I0316 12:04:36.860399 55708 net.cpp:380] inception_10a/output_inception_10a/output_0_split -> inception_10a/output_inception_10a/output_0_split_0
I0316 12:04:36.860404 55708 net.cpp:380] inception_10a/output_inception_10a/output_0_split -> inception_10a/output_inception_10a/output_0_split_1
I0316 12:04:36.860432 55708 net.cpp:122] Setting up inception_10a/output_inception_10a/output_0_split
I0316 12:04:36.860437 55708 net.cpp:129] Top shape: 32 336 8 8 (688128)
I0316 12:04:36.860440 55708 net.cpp:129] Top shape: 32 336 8 8 (688128)
I0316 12:04:36.860443 55708 net.cpp:137] Memory required for data: 409469056
I0316 12:04:36.860447 55708 layer_factory.hpp:77] Creating layer inception_11a/1x1
I0316 12:04:36.860455 55708 net.cpp:84] Creating Layer inception_11a/1x1
I0316 12:04:36.860460 55708 net.cpp:406] inception_11a/1x1 <- inception_10a/output_inception_10a/output_0_split_0
I0316 12:04:36.860464 55708 net.cpp:380] inception_11a/1x1 -> inception_11a/1x1
I0316 12:04:36.861023 55708 net.cpp:122] Setting up inception_11a/1x1
I0316 12:04:36.861032 55708 net.cpp:129] Top shape: 32 176 8 8 (360448)
I0316 12:04:36.861034 55708 net.cpp:137] Memory required for data: 410910848
I0316 12:04:36.861039 55708 layer_factory.hpp:77] Creating layer inception_11a/1x1/bn1
I0316 12:04:36.861047 55708 net.cpp:84] Creating Layer inception_11a/1x1/bn1
I0316 12:04:36.861059 55708 net.cpp:406] inception_11a/1x1/bn1 <- inception_11a/1x1
I0316 12:04:36.861064 55708 net.cpp:367] inception_11a/1x1/bn1 -> inception_11a/1x1 (in-place)
I0316 12:04:36.861224 55708 net.cpp:122] Setting up inception_11a/1x1/bn1
I0316 12:04:36.861232 55708 net.cpp:129] Top shape: 32 176 8 8 (360448)
I0316 12:04:36.861234 55708 net.cpp:137] Memory required for data: 412352640
I0316 12:04:36.861243 55708 layer_factory.hpp:77] Creating layer inception_11a/1x1/scale1
I0316 12:04:36.861248 55708 net.cpp:84] Creating Layer inception_11a/1x1/scale1
I0316 12:04:36.861251 55708 net.cpp:406] inception_11a/1x1/scale1 <- inception_11a/1x1
I0316 12:04:36.861256 55708 net.cpp:367] inception_11a/1x1/scale1 -> inception_11a/1x1 (in-place)
I0316 12:04:36.861284 55708 layer_factory.hpp:77] Creating layer inception_11a/1x1/scale1
I0316 12:04:36.861377 55708 net.cpp:122] Setting up inception_11a/1x1/scale1
I0316 12:04:36.861384 55708 net.cpp:129] Top shape: 32 176 8 8 (360448)
I0316 12:04:36.861387 55708 net.cpp:137] Memory required for data: 413794432
I0316 12:04:36.861392 55708 layer_factory.hpp:77] Creating layer inception_11a/1x1/relu1
I0316 12:04:36.861397 55708 net.cpp:84] Creating Layer inception_11a/1x1/relu1
I0316 12:04:36.861402 55708 net.cpp:406] inception_11a/1x1/relu1 <- inception_11a/1x1
I0316 12:04:36.861405 55708 net.cpp:367] inception_11a/1x1/relu1 -> inception_11a/1x1 (in-place)
I0316 12:04:36.861410 55708 net.cpp:122] Setting up inception_11a/1x1/relu1
I0316 12:04:36.861414 55708 net.cpp:129] Top shape: 32 176 8 8 (360448)
I0316 12:04:36.861418 55708 net.cpp:137] Memory required for data: 415236224
I0316 12:04:36.861420 55708 layer_factory.hpp:77] Creating layer inception_11a/3x3
I0316 12:04:36.861426 55708 net.cpp:84] Creating Layer inception_11a/3x3
I0316 12:04:36.861430 55708 net.cpp:406] inception_11a/3x3 <- inception_10a/output_inception_10a/output_0_split_1
I0316 12:04:36.861436 55708 net.cpp:380] inception_11a/3x3 -> inception_11a/3x3
I0316 12:04:36.865957 55708 net.cpp:122] Setting up inception_11a/3x3
I0316 12:04:36.865972 55708 net.cpp:129] Top shape: 32 160 8 8 (327680)
I0316 12:04:36.865975 55708 net.cpp:137] Memory required for data: 416546944
I0316 12:04:36.865983 55708 layer_factory.hpp:77] Creating layer inception_11a/3x3/bn1
I0316 12:04:36.865990 55708 net.cpp:84] Creating Layer inception_11a/3x3/bn1
I0316 12:04:36.865994 55708 net.cpp:406] inception_11a/3x3/bn1 <- inception_11a/3x3
I0316 12:04:36.866000 55708 net.cpp:367] inception_11a/3x3/bn1 -> inception_11a/3x3 (in-place)
I0316 12:04:36.866166 55708 net.cpp:122] Setting up inception_11a/3x3/bn1
I0316 12:04:36.866173 55708 net.cpp:129] Top shape: 32 160 8 8 (327680)
I0316 12:04:36.866176 55708 net.cpp:137] Memory required for data: 417857664
I0316 12:04:36.866194 55708 layer_factory.hpp:77] Creating layer inception_11a/3x3/scale1
I0316 12:04:36.866201 55708 net.cpp:84] Creating Layer inception_11a/3x3/scale1
I0316 12:04:36.866204 55708 net.cpp:406] inception_11a/3x3/scale1 <- inception_11a/3x3
I0316 12:04:36.866209 55708 net.cpp:367] inception_11a/3x3/scale1 -> inception_11a/3x3 (in-place)
I0316 12:04:36.866237 55708 layer_factory.hpp:77] Creating layer inception_11a/3x3/scale1
I0316 12:04:36.866341 55708 net.cpp:122] Setting up inception_11a/3x3/scale1
I0316 12:04:36.866348 55708 net.cpp:129] Top shape: 32 160 8 8 (327680)
I0316 12:04:36.866350 55708 net.cpp:137] Memory required for data: 419168384
I0316 12:04:36.866356 55708 layer_factory.hpp:77] Creating layer inception_11a/3x3/relu1
I0316 12:04:36.866361 55708 net.cpp:84] Creating Layer inception_11a/3x3/relu1
I0316 12:04:36.866364 55708 net.cpp:406] inception_11a/3x3/relu1 <- inception_11a/3x3
I0316 12:04:36.866369 55708 net.cpp:367] inception_11a/3x3/relu1 -> inception_11a/3x3 (in-place)
I0316 12:04:36.866374 55708 net.cpp:122] Setting up inception_11a/3x3/relu1
I0316 12:04:36.866377 55708 net.cpp:129] Top shape: 32 160 8 8 (327680)
I0316 12:04:36.866380 55708 net.cpp:137] Memory required for data: 420479104
I0316 12:04:36.866402 55708 layer_factory.hpp:77] Creating layer inception_11a/output
I0316 12:04:36.866407 55708 net.cpp:84] Creating Layer inception_11a/output
I0316 12:04:36.866411 55708 net.cpp:406] inception_11a/output <- inception_11a/1x1
I0316 12:04:36.866415 55708 net.cpp:406] inception_11a/output <- inception_11a/3x3
I0316 12:04:36.866420 55708 net.cpp:380] inception_11a/output -> inception_11a/output
I0316 12:04:36.866437 55708 net.cpp:122] Setting up inception_11a/output
I0316 12:04:36.866442 55708 net.cpp:129] Top shape: 32 336 8 8 (688128)
I0316 12:04:36.866446 55708 net.cpp:137] Memory required for data: 423231616
I0316 12:04:36.866448 55708 layer_factory.hpp:77] Creating layer avg_pool_12/8x8_s1
I0316 12:04:36.866453 55708 net.cpp:84] Creating Layer avg_pool_12/8x8_s1
I0316 12:04:36.866458 55708 net.cpp:406] avg_pool_12/8x8_s1 <- inception_11a/output
I0316 12:04:36.866462 55708 net.cpp:380] avg_pool_12/8x8_s1 -> avg_pool_12/8x8_s1
I0316 12:04:36.866479 55708 net.cpp:122] Setting up avg_pool_12/8x8_s1
I0316 12:04:36.866483 55708 net.cpp:129] Top shape: 32 336 1 1 (10752)
I0316 12:04:36.866487 55708 net.cpp:137] Memory required for data: 423274624
I0316 12:04:36.866490 55708 layer_factory.hpp:77] Creating layer drop_8x8_s1
I0316 12:04:36.866497 55708 net.cpp:84] Creating Layer drop_8x8_s1
I0316 12:04:36.866500 55708 net.cpp:406] drop_8x8_s1 <- avg_pool_12/8x8_s1
I0316 12:04:36.866505 55708 net.cpp:367] drop_8x8_s1 -> avg_pool_12/8x8_s1 (in-place)
I0316 12:04:36.866524 55708 net.cpp:122] Setting up drop_8x8_s1
I0316 12:04:36.866528 55708 net.cpp:129] Top shape: 32 336 1 1 (10752)
I0316 12:04:36.866531 55708 net.cpp:137] Memory required for data: 423317632
I0316 12:04:36.866535 55708 layer_factory.hpp:77] Creating layer latent
I0316 12:04:36.866542 55708 net.cpp:84] Creating Layer latent
I0316 12:04:36.866545 55708 net.cpp:406] latent <- avg_pool_12/8x8_s1
I0316 12:04:36.866550 55708 net.cpp:380] latent -> latent
I0316 12:04:36.866951 55708 net.cpp:122] Setting up latent
I0316 12:04:36.866958 55708 net.cpp:129] Top shape: 32 48 (1536)
I0316 12:04:36.866961 55708 net.cpp:137] Memory required for data: 423323776
I0316 12:04:36.866966 55708 layer_factory.hpp:77] Creating layer latent_sigmoid
I0316 12:04:36.866971 55708 net.cpp:84] Creating Layer latent_sigmoid
I0316 12:04:36.866976 55708 net.cpp:406] latent_sigmoid <- latent
I0316 12:04:36.866979 55708 net.cpp:380] latent_sigmoid -> latent_sigmoid
I0316 12:04:36.866995 55708 net.cpp:122] Setting up latent_sigmoid
I0316 12:04:36.867000 55708 net.cpp:129] Top shape: 32 48 (1536)
I0316 12:04:36.867003 55708 net.cpp:137] Memory required for data: 423329920
I0316 12:04:36.867007 55708 layer_factory.hpp:77] Creating layer latent_sigmoid_latent_sigmoid_0_split
I0316 12:04:36.867012 55708 net.cpp:84] Creating Layer latent_sigmoid_latent_sigmoid_0_split
I0316 12:04:36.867015 55708 net.cpp:406] latent_sigmoid_latent_sigmoid_0_split <- latent_sigmoid
I0316 12:04:36.867020 55708 net.cpp:380] latent_sigmoid_latent_sigmoid_0_split -> latent_sigmoid_latent_sigmoid_0_split_0
I0316 12:04:36.867025 55708 net.cpp:380] latent_sigmoid_latent_sigmoid_0_split -> latent_sigmoid_latent_sigmoid_0_split_1
I0316 12:04:36.867031 55708 net.cpp:380] latent_sigmoid_latent_sigmoid_0_split -> latent_sigmoid_latent_sigmoid_0_split_2
I0316 12:04:36.867038 55708 net.cpp:380] latent_sigmoid_latent_sigmoid_0_split -> latent_sigmoid_latent_sigmoid_0_split_3
I0316 12:04:36.867082 55708 net.cpp:122] Setting up latent_sigmoid_latent_sigmoid_0_split
I0316 12:04:36.867089 55708 net.cpp:129] Top shape: 32 48 (1536)
I0316 12:04:36.867092 55708 net.cpp:129] Top shape: 32 48 (1536)
I0316 12:04:36.867096 55708 net.cpp:129] Top shape: 32 48 (1536)
I0316 12:04:36.867100 55708 net.cpp:129] Top shape: 32 48 (1536)
I0316 12:04:36.867102 55708 net.cpp:137] Memory required for data: 423354496
I0316 12:04:36.867105 55708 layer_factory.hpp:77] Creating layer loss_1
I0316 12:04:36.867115 55708 net.cpp:84] Creating Layer loss_1
I0316 12:04:36.867120 55708 net.cpp:406] loss_1 <- latent_sigmoid_latent_sigmoid_0_split_0
I0316 12:04:36.867123 55708 net.cpp:406] loss_1 <- latent_sigmoid_latent_sigmoid_0_split_1
I0316 12:04:36.867136 55708 net.cpp:380] loss_1 -> loss: forcing-binary
I0316 12:04:36.867166 55708 net.cpp:122] Setting up loss_1
I0316 12:04:36.867172 55708 net.cpp:129] Top shape: (1)
I0316 12:04:36.867175 55708 net.cpp:132]     with loss weight 1
I0316 12:04:36.867192 55708 net.cpp:137] Memory required for data: 423354500
I0316 12:04:36.867197 55708 layer_factory.hpp:77] Creating layer latent_sigmoid_reshape
I0316 12:04:36.867204 55708 net.cpp:84] Creating Layer latent_sigmoid_reshape
I0316 12:04:36.867208 55708 net.cpp:406] latent_sigmoid_reshape <- latent_sigmoid_latent_sigmoid_0_split_2
I0316 12:04:36.867213 55708 net.cpp:380] latent_sigmoid_reshape -> latent_sigmoid_reshape
I0316 12:04:36.867239 55708 net.cpp:122] Setting up latent_sigmoid_reshape
I0316 12:04:36.867245 55708 net.cpp:129] Top shape: 32 1 1 48 (1536)
I0316 12:04:36.867249 55708 net.cpp:137] Memory required for data: 423360644
I0316 12:04:36.867251 55708 layer_factory.hpp:77] Creating layer latent_sigmoid_avg
I0316 12:04:36.867259 55708 net.cpp:84] Creating Layer latent_sigmoid_avg
I0316 12:04:36.867261 55708 net.cpp:406] latent_sigmoid_avg <- latent_sigmoid_reshape
I0316 12:04:36.867267 55708 net.cpp:380] latent_sigmoid_avg -> latent_sigmoid_avg
I0316 12:04:36.867285 55708 net.cpp:122] Setting up latent_sigmoid_avg
I0316 12:04:36.867290 55708 net.cpp:129] Top shape: 32 1 1 1 (32)
I0316 12:04:36.867292 55708 net.cpp:137] Memory required for data: 423360772
I0316 12:04:36.867295 55708 layer_factory.hpp:77] Creating layer latent_sigmoid_avg_latent_sigmoid_avg_0_split
I0316 12:04:36.867300 55708 net.cpp:84] Creating Layer latent_sigmoid_avg_latent_sigmoid_avg_0_split
I0316 12:04:36.867305 55708 net.cpp:406] latent_sigmoid_avg_latent_sigmoid_avg_0_split <- latent_sigmoid_avg
I0316 12:04:36.867319 55708 net.cpp:380] latent_sigmoid_avg_latent_sigmoid_avg_0_split -> latent_sigmoid_avg_latent_sigmoid_avg_0_split_0
I0316 12:04:36.867326 55708 net.cpp:380] latent_sigmoid_avg_latent_sigmoid_avg_0_split -> latent_sigmoid_avg_latent_sigmoid_avg_0_split_1
I0316 12:04:36.867363 55708 net.cpp:122] Setting up latent_sigmoid_avg_latent_sigmoid_avg_0_split
I0316 12:04:36.867370 55708 net.cpp:129] Top shape: 32 1 1 1 (32)
I0316 12:04:36.867374 55708 net.cpp:129] Top shape: 32 1 1 1 (32)
I0316 12:04:36.867377 55708 net.cpp:137] Memory required for data: 423361028
I0316 12:04:36.867380 55708 layer_factory.hpp:77] Creating layer loss_2
I0316 12:04:36.867386 55708 net.cpp:84] Creating Layer loss_2
I0316 12:04:36.867389 55708 net.cpp:406] loss_2 <- latent_sigmoid_avg_latent_sigmoid_avg_0_split_0
I0316 12:04:36.867393 55708 net.cpp:406] loss_2 <- latent_sigmoid_avg_latent_sigmoid_avg_0_split_1
I0316 12:04:36.867398 55708 net.cpp:380] loss_2 -> loss: 50%-fire-rate
I0316 12:04:36.867425 55708 net.cpp:122] Setting up loss_2
I0316 12:04:36.867430 55708 net.cpp:129] Top shape: (1)
I0316 12:04:36.867432 55708 net.cpp:132]     with loss weight 1
I0316 12:04:36.867437 55708 net.cpp:137] Memory required for data: 423361032
I0316 12:04:36.867440 55708 layer_factory.hpp:77] Creating layer fc10
I0316 12:04:36.867445 55708 net.cpp:84] Creating Layer fc10
I0316 12:04:36.867449 55708 net.cpp:406] fc10 <- latent_sigmoid_latent_sigmoid_0_split_3
I0316 12:04:36.867455 55708 net.cpp:380] fc10 -> fc10
I0316 12:04:36.867560 55708 net.cpp:122] Setting up fc10
I0316 12:04:36.867566 55708 net.cpp:129] Top shape: 32 10 (320)
I0316 12:04:36.867569 55708 net.cpp:137] Memory required for data: 423362312
I0316 12:04:36.867574 55708 layer_factory.hpp:77] Creating layer loss
I0316 12:04:36.867580 55708 net.cpp:84] Creating Layer loss
I0316 12:04:36.867583 55708 net.cpp:406] loss <- fc10
I0316 12:04:36.867588 55708 net.cpp:406] loss <- label
I0316 12:04:36.867592 55708 net.cpp:380] loss -> loss
I0316 12:04:36.867599 55708 layer_factory.hpp:77] Creating layer loss
…
I0316 12:04:37.084842 55708 net.cpp:294] The NetState phase (1) differed from the phase (0) specified by a rule in layer data
I0316 12:04:37.085561 55708 net.cpp:51] Initializing net from parameters: 
name: "miniGoogleNet for CIFAR10, model 3"
state {
  phase: TEST
}
layer {
  name: "data"
  type: "Data"
  top: "data"
  top: "label"
  include {
    phase: TEST
  }
  transform_param {
    mirror: false
    crop_size: 32
    mean_value: 104
    mean_value: 117
    mean_value: 123
  }
  data_param {
    source: "../../data/cifar10/cifar10_val_leveldb"
    batch_size: 32
  }
}
layer {
  name: "conv1/3x3_s1"
  type: "Convolution"
  bottom: "data"
  top: "conv1/3x3_s1"
  param {
    lr_mult: 1
    decay_mult: 1
  }
  param {
    lr_mult: 2
    decay_mult: 0
  }
  convolution_param {
    num_output: 96
    pad: 1
    kernel_size: 3
    stride: 1
    weight_filler {
      type: "xavier"
      std: 0.1
    }
    bias_filler {
      type: "constant"
      value: 0.2
    }
  }
}
layer {
  name: "conv1/bn1"
  type: "BatchNorm"
  bottom: "conv1/3x3_s1"
  top: "conv1/3x3_s1"
  param {
    lr_mult: 0
    decay_mult: 0
  }
  param {
    lr_mult: 0
    decay_mult: 0
  }
  param {
    lr_mult: 0
    decay_mult: 0
  }
  batch_norm_param {
    use_global_stats: false
  }
}
layer {
  name: "conv1/scale1"
  type: "Scale"
  bottom: "conv1/3x3_s1"
  top: "conv1/3x3_s1"
  scale_param {
    bias_term: true
  }
}
layer {
  name: "conv1/relu1"
  type: "ReLU"
  bottom: "conv1/3x3_s1"
  top: "conv1/3x3_s1"
}
layer {
  name: "inception_2a/1x1"
  type: "Convolution"
  bottom: "conv1/3x3_s1"
  top: "inception_2a/1x1"
  param {
    lr_mult: 1
    decay_mult: 1
  }
  param {
    lr_mult: 2
    decay_mult: 0
  }
  convolution_param {
    num_output: 32
    kernel_size: 1
    weight_filler {
      type: "xavier"
      std: 0.03
    }
    bias_filler {
      type: "constant"
      value: 0.2
    }
  }
}
layer {
  name: "inception_2a/1x1/bn1"
  type: "BatchNorm"
  bottom: "inception_2a/1x1"
  top: "inception_2a/1x1"
  param {
    lr_mult: 0
    decay_mult: 0
  }
  param {
    lr_mult: 0
    decay_mult: 0
  }
  param {
    lr_mult: 0
    decay_mult: 0
  }
  batch_norm_param {
    use_global_stats: false
  }
}
layer {
  name: "inception_2a/1x1/scale1"
  type: "Scale"
  bottom: "inception_2a/1x1"
  top: "inception_2a/1x1"
  scale_param {
    bias_term: true
  }
}
layer {
  name: "inception_2a/1x1/relu1"
  type: "ReLU"
  bottom: "inception_2a/1x1"
  top: "inception_2a/1x1"
}
layer {
  name: "inception_2a/3x3"
  type: "Convolution"
  bottom: "conv1/3x3_s1"
  top: "inception_2a/3x3"
  param {
    lr_mult: 1
    decay_mult: 1
  }
  param {
    lr_mult: 2
    decay_mult: 0
  }
  convolution_param {
    num_output: 32
    pad: 1
    kernel_size: 3
    weight_filler {
      type: "xavier"
      std: 0.03
    }
    bias_filler {
      type: "constant"
      value: 0.2
    }
  }
}
layer {
  name: "inception_2a/3x3/bn1"
  type: "BatchNorm"
  bottom: "inception_2a/3x3"
  top: "inception_2a/3x3"
  param {
    lr_mult: 0
    decay_mult: 0
  }
  param {
    lr_mult: 0
    decay_mult: 0
  }
  param {
    lr_mult: 0
    decay_mult: 0
  }
  batch_norm_param {
    use_global_stats: false
  }
}
layer {
  name: "inception_2a/3x3/scale1"
  type: "Scale"
  bottom: "inception_2a/3x3"
  top: "inception_2a/3x3"
  scale_param {
    bias_term: true
  }
}
layer {
  name: "inception_2a/3x3/relu1"
  type: "ReLU"
  bottom: "inception_2a/3x3"
  top: "inception_2a/3x3"
}
layer {
  name: "inception_2a/output"
  type: "Concat"
  bottom: "inception_2a/1x1"
  bottom: "inception_2a/3x3"
  top: "inception_2a/output"
}
layer {
  name: "inception_3a/1x1"
  type: "Convolution"
  bottom: "inception_2a/output"
  top: "inception_3a/1x1"
  param {
    lr_mult: 1
    decay_mult: 1
  }
  param {
    lr_mult: 2
    decay_mult: 0
  }
  convolution_param {
    num_output: 32
    kernel_size: 1
    weight_filler {
      type: "xavier"
      std: 0.03
    }
    bias_filler {
      type: "constant"
      value: 0.2
    }
  }
}
layer {
  name: "inception_3a/1x1/bn1"
  type: "BatchNorm"
  bottom: "inception_3a/1x1"
  top: "inception_3a/1x1"
  param {
    lr_mult: 0
    decay_mult: 0
  }
  param {
    lr_mult: 0
    decay_mult: 0
  }
  param {
    lr_mult: 0
    decay_mult: 0
  }
  batch_norm_param {
    use_global_stats: false
  }
}
layer {
  name: "inception_3a/1x1/scale1"
  type: "Scale"
  bottom: "inception_3a/1x1"
  top: "inception_3a/1x1"
  scale_param {
    bias_term: true
  }
}
layer {
  name: "inception_3a/1x1/relu1"
  type: "ReLU"
  bottom: "inception_3a/1x1"
  top: "inception_3a/1x1"
}
layer {
  name: "inception_3a/3x3"
  type: "Convolution"
  bottom: "inception_2a/output"
  top: "inception_3a/3x3"
  param {
    lr_mult: 1
    decay_mult: 1
  }
  param {
    lr_mult: 2
    decay_mult: 0
  }
  convolution_param {
    num_output: 48
    pad: 1
    kernel_size: 3
    weight_filler {
      type: "xavier"
      std: 0.03
    }
    bias_filler {
      type: "constant"
      value: 0.2
    }
  }
}
layer {
  name: "inception_3a/3x3/bn1"
  type: "BatchNorm"
  bottom: "inception_3a/3x3"
  top: "inception_3a/3x3"
  param {
    lr_mult: 0
    decay_mult: 0
  }
  param {
    lr_mult: 0
    decay_mult: 0
  }
  param {
    lr_mult: 0
    decay_mult: 0
  }
  batch_norm_param {
    use_global_stats: false
  }
}
layer {
  name: "inception_3a/3x3/scale1"
  type: "Scale"
  bottom: "inception_3a/3x3"
  top: "inception_3a/3x3"
  scale_param {
    bias_term: true
  }
}
layer {
  name: "inception_3a/3x3/relu1"
  type: "ReLU"
  bottom: "inception_3a/3x3"
  top: "inception_3a/3x3"
}
layer {
  name: "inception_3a/output"
  type: "Concat"
  bottom: "inception_3a/1x1"
  bottom: "inception_3a/3x3"
  top: "inception_3a/output"
}
layer {
  name: "downsample_4/3x3_s2"
  type: "Convolution"
  bottom: "inception_3a/output"
  top: "downsample_4/3x3_s2"
  param {
    lr_mult: 1
    decay_mult: 1
  }
  param {
    lr_mult: 2
    decay_mult: 0
  }
  convolution_param {
    num_output: 80
    pad: 1
    kernel_size: 3
    stride: 2
    weight_filler {
      type: "xavier"
      std: 0.03
    }
    bias_filler {
      type: "constant"
      value: 0.2
    }
  }
}
layer {
  name: "downsample_4/3x3_s2/bn1"
  type: "BatchNorm"
  bottom: "downsample_4/3x3_s2"
  top: "downsample_4/3x3_s2"
  param {
    lr_mult: 0
    decay_mult: 0
  }
  param {
    lr_mult: 0
    decay_mult: 0
  }
  param {
    lr_mult: 0
    decay_mult: 0
  }
  batch_norm_param {
    use_global_stats: false
  }
}
layer {
  name: "downsample_4/3x3_s2/scale1"
  type: "Scale"
  bottom: "downsample_4/3x3_s2"
  top: "downsample_4/3x3_s2"
  scale_param {
    bias_term: true
  }
}
layer {
  name: "downsample_4/3x3_s2/relu1"
  type: "ReLU"
  bottom: "downsample_4/3x3_s2"
  top: "downsample_4/3x3_s2"
}
layer {
  name: "downsample_4/pool_s2"
  type: "Pooling"
  bottom: "inception_3a/output"
  top: "downsample_4/pool_s2"
  pooling_param {
    pool: MAX
    kernel_size: 3
    stride: 2
  }
}
layer {
  name: "downsample_4/output"
  type: "Concat"
  bottom: "downsample_4/3x3_s2"
  bottom: "downsample_4/pool_s2"
  top: "downsample_4/output"
}
layer {
  name: "inception_5a/1x1"
  type: "Convolution"
  bottom: "downsample_4/output"
  top: "inception_5a/1x1"
  param {
    lr_mult: 1
    decay_mult: 1
  }
  param {
    lr_mult: 2
    decay_mult: 0
  }
  convolution_param {
    num_output: 112
    kernel_size: 1
    weight_filler {
      type: "xavier"
      std: 0.03
    }
    bias_filler {
      type: "constant"
      value: 0.2
    }
  }
}
layer {
  name: "inception_5a/1x1/bn1"
  type: "BatchNorm"
  bottom: "inception_5a/1x1"
  top: "inception_5a/1x1"
  param {
    lr_mult: 0
    decay_mult: 0
  }
  param {
    lr_mult: 0
    decay_mult: 0
  }
  param {
    lr_mult: 0
    decay_mult: 0
  }
  batch_norm_param {
    use_global_stats: false
  }
}
layer {
  name: "inception_5a/1x1/scale1"
  type: "Scale"
  bottom: "inception_5a/1x1"
  top: "inception_5a/1x1"
  scale_param {
    bias_term: true
  }
}
layer {
  name: "inception_5a/1x1/relu1"
  type: "ReLU"
  bottom: "inception_5a/1x1"
  top: "inception_5a/1x1"
}
layer {
  name: "inception_5a/3x3"
  type: "Convolution"
  bottom: "downsample_4/output"
  top: "inception_5a/3x3"
  param {
    lr_mult: 1
    decay_mult: 1
  }
  param {
    lr_mult: 2
    decay_mult: 0
  }
  convolution_param {
    num_output: 48
    pad: 1
    kernel_size: 3
    weight_filler {
      type: "xavier"
      std: 0.03
    }
    bias_filler {
      type: "constant"
      value: 0.2
    }
  }
}
layer {
  name: "inception_5a/3x3/bn1"
  type: "BatchNorm"
  bottom: "inception_5a/3x3"
  top: "inception_5a/3x3"
  param {
    lr_mult: 0
    decay_mult: 0
  }
  param {
    lr_mult: 0
    decay_mult: 0
  }
  param {
    lr_mult: 0
    decay_mult: 0
  }
  batch_norm_param {
    use_global_stats: false
  }
}
layer {
  name: "inception_5a/3x3/scale1"
  type: "Scale"
  bottom: "inception_5a/3x3"
  top: "inception_5a/3x3"
  scale_param {
    bias_term: true
  }
}
layer {
  name: "inception_5a/3x3/relu1"
  type: "ReLU"
  bottom: "inception_5a/3x3"
  top: "inception_5a/3x3"
}
layer {
  name: "inception_5a/output"
  type: "Concat"
  bottom: "inception_5a/1x1"
  bottom: "inception_5a/3x3"
  top: "inception_5a/output"
}
layer {
  name: "inception_6a/1x1"
  type: "Convolution"
  bottom: "inception_5a/output"
  top: "inception_6a/1x1"
  param {
    lr_mult: 1
    decay_mult: 1
  }
  param {
    lr_mult: 2
    decay_mult: 0
  }
  convolution_param {
    num_output: 96
    kernel_size: 1
    weight_filler {
      type: "xavier"
      std: 0.03
    }
    bias_filler {
      type: "constant"
      value: 0.2
    }
  }
}
layer {
  name: "inception_6a/1x1/bn1"
  type: "BatchNorm"
  bottom: "inception_6a/1x1"
  top: "inception_6a/1x1"
  param {
    lr_mult: 0
    decay_mult: 0
  }
  param {
    lr_mult: 0
    decay_mult: 0
  }
  param {
    lr_mult: 0
    decay_mult: 0
  }
  batch_norm_param {
    use_global_stats: false
  }
}
layer {
  name: "inception_6a/1x1/scale1"
  type: "Scale"
  bottom: "inception_6a/1x1"
  top: "inception_6a/1x1"
  scale_param {
    bias_term: true
  }
}
layer {
  name: "inception_6a/1x1/relu1"
  type: "ReLU"
  bottom: "inception_6a/1x1"
  top: "inception_6a/1x1"
}
layer {
  name: "inception_6a/3x3"
  type: "Convolution"
  bottom: "inception_5a/output"
  top: "inception_6a/3x3"
  param {
    lr_mult: 1
    decay_mult: 1
  }
  param {
    lr_mult: 2
    decay_mult: 0
  }
  convolution_param {
    num_output: 64
    pad: 1
    kernel_size: 3
    weight_filler {
      type: "xavier"
      std: 0.03
    }
    bias_filler {
      type: "constant"
      value: 0.2
    }
  }
}
layer {
  name: "inception_6a/3x3/bn1"
  type: "BatchNorm"
  bottom: "inception_6a/3x3"
  top: "inception_6a/3x3"
  param {
    lr_mult: 0
    decay_mult: 0
  }
  param {
    lr_mult: 0
    decay_mult: 0
  }
  param {
    lr_mult: 0
    decay_mult: 0
  }
  batch_norm_param {
    use_global_stats: false
  }
}
layer {
  name: "inception_6a/3x3/scale1"
  type: "Scale"
  bottom: "inception_6a/3x3"
  top: "inception_6a/3x3"
  scale_param {
    bias_term: true
  }
}
layer {
  name: "inception_6a/3x3/relu1"
  type: "ReLU"
  bottom: "inception_6a/3x3"
  top: "inception_6a/3x3"
}
layer {
  name: "inception_6a/output"
  type: "Concat"
  bottom: "inception_6a/1x1"
  bottom: "inception_6a/3x3"
  top: "inception_6a/output"
}
layer {
  name: "inception_7a/1x1"
  type: "Convolution"
  bottom: "inception_6a/output"
  top: "inception_7a/1x1"
  param {
    lr_mult: 1
    decay_mult: 1
  }
  param {
    lr_mult: 2
    decay_mult: 0
  }
  convolution_param {
    num_output: 80
    kernel_size: 1
    weight_filler {
      type: "xavier"
      std: 0.03
    }
    bias_filler {
      type: "constant"
      value: 0.2
    }
  }
}
layer {
  name: "inception_7a/1x1/bn1"
  type: "BatchNorm"
  bottom: "inception_7a/1x1"
  top: "inception_7a/1x1"
  param {
    lr_mult: 0
    decay_mult: 0
  }
  param {
    lr_mult: 0
    decay_mult: 0
  }
  param {
    lr_mult: 0
    decay_mult: 0
  }
  batch_norm_param {
    use_global_stats: false
  }
}
layer {
  name: "inception_7a/1x1/scale1"
  type: "Scale"
  bottom: "inception_7a/1x1"
  top: "inception_7a/1x1"
  scale_param {
    bias_term: true
  }
}
layer {
  name: "inception_7a/1x1/relu1"
  type: "ReLU"
  bottom: "inception_7a/1x1"
  top: "inception_7a/1x1"
}
layer {
  name: "inception_7a/3x3"
  type: "Convolution"
  bottom: "inception_6a/output"
  top: "inception_7a/3x3"
  param {
    lr_mult: 1
    decay_mult: 1
  }
  param {
    lr_mult: 2
    decay_mult: 0
  }
  convolution_param {
    num_output: 80
    pad: 1
    kernel_size: 3
    weight_filler {
      type: "xavier"
      std: 0.03
    }
    bias_filler {
      type: "constant"
      value: 0.2
    }
  }
}
layer {
  name: "inception_7a/3x3/bn1"
  type: "BatchNorm"
  bottom: "inception_7a/3x3"
  top: "inception_7a/3x3"
  param {
    lr_mult: 0
    decay_mult: 0
  }
  param {
    lr_mult: 0
    decay_mult: 0
  }
  param {
    lr_mult: 0
    decay_mult: 0
  }
  batch_norm_param {
    use_global_stats: false
  }
}
layer {
  name: "inception_7a/3x3/scale1"
  type: "Scale"
  bottom: "inception_7a/3x3"
  top: "inception_7a/3x3"
  scale_param {
    bias_term: true
  }
}
layer {
  name: "inception_7a/3x3/relu1"
  type: "ReLU"
  bottom: "inception_7a/3x3"
  top: "inception_7a/3x3"
}
layer {
  name: "inception_7a/output"
  type: "Concat"
  bottom: "inception_7a/1x1"
  bottom: "inception_7a/3x3"
  top: "inception_7a/output"
}
layer {
  name: "inception_8a/1x1"
  type: "Convolution"
  bottom: "inception_7a/output"
  top: "inception_8a/1x1"
  param {
    lr_mult: 1
    decay_mult: 1
  }
  param {
    lr_mult: 2
    decay_mult: 0
  }
  convolution_param {
    num_output: 48
    kernel_size: 1
    weight_filler {
      type: "xavier"
      std: 0.03
    }
    bias_filler {
      type: "constant"
      value: 0.2
    }
  }
}
layer {
  name: "inception_8a/1x1/bn1"
  type: "BatchNorm"
  bottom: "inception_8a/1x1"
  top: "inception_8a/1x1"
  param {
    lr_mult: 0
    decay_mult: 0
  }
  param {
    lr_mult: 0
    decay_mult: 0
  }
  param {
    lr_mult: 0
    decay_mult: 0
  }
  batch_norm_param {
    use_global_stats: false
  }
}
layer {
  name: "inception_8a/1x1/scale1"
  type: "Scale"
  bottom: "inception_8a/1x1"
  top: "inception_8a/1x1"
  scale_param {
    bias_term: true
  }
}
layer {
  name: "inception_8a/1x1/relu1"
  type: "ReLU"
  bottom: "inception_8a/1x1"
  top: "inception_8a/1x1"
}
layer {
  name: "inception_8a/3x3"
  type: "Convolution"
  bottom: "inception_7a/output"
  top: "inception_8a/3x3"
  param {
    lr_mult: 1
    decay_mult: 1
  }
  param {
    lr_mult: 2
    decay_mult: 0
  }
  convolution_param {
    num_output: 96
    pad: 1
    kernel_size: 3
    weight_filler {
      type: "xavier"
      std: 0.03
    }
    bias_filler {
      type: "constant"
      value: 0.2
    }
  }
}
layer {
  name: "inception_8a/3x3/bn1"
  type: "BatchNorm"
  bottom: "inception_8a/3x3"
  top: "inception_8a/3x3"
  param {
    lr_mult: 0
    decay_mult: 0
  }
  param {
    lr_mult: 0
    decay_mult: 0
  }
  param {
    lr_mult: 0
    decay_mult: 0
  }
  batch_norm_param {
    use_global_stats: false
  }
}
layer {
  name: "inception_8a/3x3/scale1"
  type: "Scale"
  bottom: "inception_8a/3x3"
  top: "inception_8a/3x3"
  scale_param {
    bias_term: true
  }
}
layer {
  name: "inception_8a/3x3/relu1"
  type: "ReLU"
  bottom: "inception_8a/3x3"
  top: "inception_8a/3x3"
}
layer {
  name: "inception_8a/output"
  type: "Concat"
  bottom: "inception_8a/1x1"
  bottom: "inception_8a/3x3"
  top: "inception_8a/output"
}
layer {
  name: "downsample_9/3x3_s2"
  type: "Convolution"
  bottom: "inception_8a/output"
  top: "downsample_9/3x3_s2"
  param {
    lr_mult: 1
    decay_mult: 1
  }
  param {
    lr_mult: 2
    decay_mult: 0
  }
  convolution_param {
    num_output: 96
    pad: 1
    kernel_size: 3
    stride: 2
    weight_filler {
      type: "xavier"
      std: 0.03
    }
    bias_filler {
      type: "constant"
      value: 0.2
    }
  }
}
layer {
  name: "downsample_9/3x3_s2/bn1"
  type: "BatchNorm"
  bottom: "downsample_9/3x3_s2"
  top: "downsample_9/3x3_s2"
  param {
    lr_mult: 0
    decay_mult: 0
  }
  param {
    lr_mult: 0
    decay_mult: 0
  }
  param {
    lr_mult: 0
    decay_mult: 0
  }
  batch_norm_param {
    use_global_stats: false
  }
}
layer {
  name: "downsample_9/3x3_s2/scale1"
  type: "Scale"
  bottom: "downsample_9/3x3_s2"
  top: "downsample_9/3x3_s2"
  scale_param {
    bias_term: true
  }
}
layer {
  name: "downsample_9/3x3_s2/relu1"
  type: "ReLU"
  bottom: "downsample_9/3x3_s2"
  top: "downsample_9/3x3_s2"
}
layer {
  name: "downsample_9/pool_s2"
  type: "Pooling"
  bottom: "inception_8a/output"
  top: "downsample_9/pool_s2"
  pooling_param {
    pool: MAX
    kernel_size: 3
    stride: 2
  }
}
layer {
  name: "downsample_9/output"
  type: "Concat"
  bottom: "downsample_9/3x3_s2"
  bottom: "downsample_9/pool_s2"
  top: "downsample_9/output"
}
layer {
  name: "inception_10a/1x1"
  type: "Convolution"
  bottom: "downsample_9/output"
  top: "inception_10a/1x1"
  param {
    lr_mult: 1
    decay_mult: 1
  }
  param {
    lr_mult: 2
    decay_mult: 0
  }
  convolution_param {
    num_output: 176
    kernel_size: 1
    weight_filler {
      type: "xavier"
      std: 0.03
    }
    bias_filler {
      type: "constant"
      value: 0.2
    }
  }
}
layer {
  name: "inception_10a/1x1/bn1"
  type: "BatchNorm"
  bottom: "inception_10a/1x1"
  top: "inception_10a/1x1"
  param {
    lr_mult: 0
    decay_mult: 0
  }
  param {
    lr_mult: 0
    decay_mult: 0
  }
  param {
    lr_mult: 0
    decay_mult: 0
  }
  batch_norm_param {
    use_global_stats: false
  }
}
layer {
  name: "inception_10a/1x1/scale1"
  type: "Scale"
  bottom: "inception_10a/1x1"
  top: "inception_10a/1x1"
  scale_param {
    bias_term: true
  }
}
layer {
  name: "inception_10a/1x1/relu1"
  type: "ReLU"
  bottom: "inception_10a/1x1"
  top: "inception_10a/1x1"
}
layer {
  name: "inception_10a/3x3"
  type: "Convolution"
  bottom: "downsample_9/output"
  top: "inception_10a/3x3"
  param {
    lr_mult: 1
    decay_mult: 1
  }
  param {
    lr_mult: 2
    decay_mult: 0
  }
  convolution_param {
    num_output: 160
    pad: 1
    kernel_size: 3
    weight_filler {
      type: "xavier"
      std: 0.03
    }
    bias_filler {
      type: "constant"
      value: 0.2
    }
  }
}
layer {
  name: "inception_10a/3x3/bn1"
  type: "BatchNorm"
  bottom: "inception_10a/3x3"
  top: "inception_10a/3x3"
  param {
    lr_mult: 0
    decay_mult: 0
  }
  param {
    lr_mult: 0
    decay_mult: 0
  }
  param {
    lr_mult: 0
    decay_mult: 0
  }
  batch_norm_param {
    use_global_stats: false
  }
}
layer {
  name: "inception_10a/3x3/scale1"
  type: "Scale"
  bottom: "inception_10a/3x3"
  top: "inception_10a/3x3"
  scale_param {
    bias_term: true
  }
}
layer {
  name: "inception_10a/3x3/relu1"
  type: "ReLU"
  bottom: "inception_10a/3x3"
  top: "inception_10a/3x3"
}
layer {
  name: "inception_10a/output"
  type: "Concat"
  bottom: "inception_10a/1x1"
  bottom: "inception_10a/3x3"
  top: "inception_10a/output"
}
layer {
  name: "inception_11a/1x1"
  type: "Convolution"
  bottom: "inception_10a/output"
  top: "inception_11a/1x1"
  param {
    lr_mult: 1
    decay_mult: 1
  }
  param {
    lr_mult: 2
    decay_mult: 0
  }
  convolution_param {
    num_output: 176
    kernel_size: 1
    weight_filler {
      type: "xavier"
      std: 0.03
    }
    bias_filler {
      type: "constant"
      value: 0.2
    }
  }
}
layer {
  name: "inception_11a/1x1/bn1"
  type: "BatchNorm"
  bottom: "inception_11a/1x1"
  top: "inception_11a/1x1"
  param {
    lr_mult: 0
    decay_mult: 0
  }
  param {
    lr_mult: 0
    decay_mult: 0
  }
  param {
    lr_mult: 0
    decay_mult: 0
  }
  batch_norm_param {
    use_global_stats: false
  }
}
layer {
  name: "inception_11a/1x1/scale1"
  type: "Scale"
  bottom: "inception_11a/1x1"
  top: "inception_11a/1x1"
  scale_param {
    bias_term: true
  }
}
layer {
  name: "inception_11a/1x1/relu1"
  type: "ReLU"
  bottom: "inception_11a/1x1"
  top: "inception_11a/1x1"
}
layer {
  name: "inception_11a/3x3"
  type: "Convolution"
  bottom: "inception_10a/output"
  top: "inception_11a/3x3"
  param {
    lr_mult: 1
    decay_mult: 1
  }
  param {
    lr_mult: 2
    decay_mult: 0
  }
  convolution_param {
    num_output: 160
    pad: 1
    kernel_size: 3
    weight_filler {
      type: "xavier"
      std: 0.03
    }
    bias_filler {
      type: "constant"
      value: 0.2
    }
  }
}
layer {
  name: "inception_11a/3x3/bn1"
  type: "BatchNorm"
  bottom: "inception_11a/3x3"
  top: "inception_11a/3x3"
  param {
    lr_mult: 0
    decay_mult: 0
  }
  param {
    lr_mult: 0
    decay_mult: 0
  }
  param {
    lr_mult: 0
    decay_mult: 0
  }
  batch_norm_param {
    use_global_stats: false
  }
}
layer {
  name: "inception_11a/3x3/scale1"
  type: "Scale"
  bottom: "inception_11a/3x3"
  top: "inception_11a/3x3"
  scale_param {
    bias_term: true
  }
}
layer {
  name: "inception_11a/3x3/relu1"
  type: "ReLU"
  bottom: "inception_11a/3x3"
  top: "inception_11a/3x3"
}
layer {
  name: "inception_11a/output"
  type: "Concat"
  bottom: "inception_11a/1x1"
  bottom: "inception_11a/3x3"
  top: "inception_11a/output"
}
layer {
  name: "avg_pool_12/8x8_s1"
  type: "Pooling"
  bottom: "inception_11a/output"
  top: "avg_pool_12/8x8_s1"
  pooling_param {
    pool: AVE
    kernel_size: 8
    stride: 1
  }
}
layer {
  name: "drop_8x8_s1"
  type: "Dropout"
  bottom: "avg_pool_12/8x8_s1"
  top: "avg_pool_12/8x8_s1"
  dropout_param {
    dropout_ratio: 0.5
  }
}
layer {
  name: "latent"
  type: "InnerProduct"
  bottom: "avg_pool_12/8x8_s1"
  top: "latent"
  param {
    lr_mult: 1
    decay_mult: 1
  }
  param {
    lr_mult: 2
    decay_mult: 0
  }
  inner_product_param {
    num_output: 48
    weight_filler {
      type: "gaussian"
      std: 0.01
    }
    bias_filler {
      type: "constant"
      value: 0
    }
  }
}
layer {
  name: "latent_sigmoid"
  type: "Sigmoid"
  bottom: "latent"
  top: "latent_sigmoid"
}
layer {
  name: "loss_1"
  type: "K1_EuclideanLoss"
  bottom: "latent_sigmoid"
  bottom: "latent_sigmoid"
  top: "loss: forcing-binary"
  loss_weight: 1
  propagate_down: true
  propagate_down: false
}
layer {
  name: "latent_sigmoid_reshape"
  type: "Reshape"
  bottom: "latent_sigmoid"
  top: "latent_sigmoid_reshape"
  reshape_param {
    shape {
      dim: 0
      dim: 1
      dim: 1
      dim: -1
    }
  }
}
layer {
  name: "latent_sigmoid_avg"
  type: "Pooling"
  bottom: "latent_sigmoid_reshape"
  top: "latent_sigmoid_avg"
  pooling_param {
    pool: AVE
    kernel_h: 1
    kernel_w: 48
  }
}
layer {
  name: "loss_2"
  type: "K2_EuclideanLoss"
  bottom: "latent_sigmoid_avg"
  bottom: "latent_sigmoid_avg"
  top: "loss: 50%-fire-rate"
  loss_weight: 1
  propagate_down: true
  propagate_down: false
}
layer {
  name: "fc10"
  type: "InnerProduct"
  bottom: "latent_sigmoid"
  top: "fc10"
  param {
    lr_mult: 1
    decay_mult: 1
  }
  param {
    lr_mult: 2
    decay_mult: 0
  }
  inner_product_param {
    num_output: 10
    weight_filler {
      type: "xavier"
    }
    bias_filler {
      type: "constant"
      value: 1
    }
  }
}
layer {
  name: "loss"
  type: "SoftmaxWithLoss"
  bottom: "fc10"
  bottom: "label"
  top: "loss"
}
layer {
  name: "accuracy-top1"
  type: "Accuracy"
  bottom: "fc10"
  bottom: "label"
  top: "top-1"
  include {
    phase: TEST
  }
}
layer {
  name: "accuracy-top5"
  type: "Accuracy"
  bottom: "fc10"
  bottom: "label"
  top: "top-5"
  include {
    phase: TEST
  }
  accuracy_param {
    top_k: 5
  }
}
I0316 12:04:37.086205 55708 layer_factory.hpp:77] Creating layer data
I0316 12:04:37.473491 55708 db_leveldb.cpp:18] Opened leveldb ../../data/cifar10/cifar10_val_leveldb
I0316 12:04:37.473577 55708 net.cpp:84] Creating Layer data
I0316 12:04:37.473600 55708 net.cpp:380] data -> data
I0316 12:04:37.473628 55708 net.cpp:380] data -> label
I0316 12:04:37.473934 55708 data_layer.cpp:45] output data size: 32,3,32,32
I0316 12:04:37.478363 55708 net.cpp:122] Setting up data
I0316 12:04:37.478394 55708 net.cpp:129] Top shape: 32 3 32 32 (98304)
I0316 12:04:37.478403 55708 net.cpp:129] Top shape: 32 (32)
I0316 12:04:37.478410 55708 net.cpp:137] Memory required for data: 393344
I0316 12:04:37.478418 55708 layer_factory.hpp:77] Creating layer label_data_1_split
I0316 12:04:37.478436 55708 net.cpp:84] Creating Layer label_data_1_split
I0316 12:04:37.478446 55708 net.cpp:406] label_data_1_split <- label
I0316 12:04:37.478456 55708 net.cpp:380] label_data_1_split -> label_data_1_split_0
I0316 12:04:37.478471 55708 net.cpp:380] label_data_1_split -> label_data_1_split_1
I0316 12:04:37.478484 55708 net.cpp:380] label_data_1_split -> label_data_1_split_2
I0316 12:04:37.478610 55708 net.cpp:122] Setting up label_data_1_split
I0316 12:04:37.478624 55708 net.cpp:129] Top shape: 32 (32)
I0316 12:04:37.478633 55708 net.cpp:129] Top shape: 32 (32)
I0316 12:04:37.478646 55708 net.cpp:129] Top shape: 32 (32)
I0316 12:04:37.478655 55708 net.cpp:137] Memory required for data: 393728
I0316 12:04:37.478664 55708 layer_factory.hpp:77] Creating layer conv1/3x3_s1
I0316 12:04:37.478693 55708 net.cpp:84] Creating Layer conv1/3x3_s1
I0316 12:04:37.478705 55708 net.cpp:406] conv1/3x3_s1 <- data
I0316 12:04:37.478720 55708 net.cpp:380] conv1/3x3_s1 -> conv1/3x3_s1
I0316 12:04:37.479487 55708 net.cpp:122] Setting up conv1/3x3_s1
I0316 12:04:37.479504 55708 net.cpp:129] Top shape: 32 96 32 32 (3145728)
I0316 12:04:37.479552 55708 net.cpp:137] Memory required for data: 12976640
I0316 12:04:37.479573 55708 layer_factory.hpp:77] Creating layer conv1/bn1
I0316 12:04:37.479593 55708 net.cpp:84] Creating Layer conv1/bn1
I0316 12:04:37.479602 55708 net.cpp:406] conv1/bn1 <- conv1/3x3_s1
I0316 12:04:37.479626 55708 net.cpp:367] conv1/bn1 -> conv1/3x3_s1 (in-place)
I0316 12:04:37.480015 55708 net.cpp:122] Setting up conv1/bn1
I0316 12:04:37.480027 55708 net.cpp:129] Top shape: 32 96 32 32 (3145728)
I0316 12:04:37.480034 55708 net.cpp:137] Memory required for data: 25559552
I0316 12:04:37.480064 55708 layer_factory.hpp:77] Creating layer conv1/scale1
I0316 12:04:37.480083 55708 net.cpp:84] Creating Layer conv1/scale1
I0316 12:04:37.480091 55708 net.cpp:406] conv1/scale1 <- conv1/3x3_s1
I0316 12:04:37.480104 55708 net.cpp:367] conv1/scale1 -> conv1/3x3_s1 (in-place)
I0316 12:04:37.480191 55708 layer_factory.hpp:77] Creating layer conv1/scale1
I0316 12:04:37.480422 55708 net.cpp:122] Setting up conv1/scale1
I0316 12:04:37.480439 55708 net.cpp:129] Top shape: 32 96 32 32 (3145728)
I0316 12:04:37.480445 55708 net.cpp:137] Memory required for data: 38142464
I0316 12:04:37.480463 55708 layer_factory.hpp:77] Creating layer conv1/relu1
I0316 12:04:37.480475 55708 net.cpp:84] Creating Layer conv1/relu1
I0316 12:04:37.480484 55708 net.cpp:406] conv1/relu1 <- conv1/3x3_s1
I0316 12:04:37.480492 55708 net.cpp:367] conv1/relu1 -> conv1/3x3_s1 (in-place)
I0316 12:04:37.480505 55708 net.cpp:122] Setting up conv1/relu1
I0316 12:04:37.480517 55708 net.cpp:129] Top shape: 32 96 32 32 (3145728)
I0316 12:04:37.480525 55708 net.cpp:137] Memory required for data: 50725376
I0316 12:04:37.480533 55708 layer_factory.hpp:77] Creating layer conv1/3x3_s1_conv1/relu1_0_split
I0316 12:04:37.480549 55708 net.cpp:84] Creating Layer conv1/3x3_s1_conv1/relu1_0_split
I0316 12:04:37.480561 55708 net.cpp:406] conv1/3x3_s1_conv1/relu1_0_split <- conv1/3x3_s1
I0316 12:04:37.480574 55708 net.cpp:380] conv1/3x3_s1_conv1/relu1_0_split -> conv1/3x3_s1_conv1/relu1_0_split_0
I0316 12:04:37.480592 55708 net.cpp:380] conv1/3x3_s1_conv1/relu1_0_split -> conv1/3x3_s1_conv1/relu1_0_split_1
I0316 12:04:37.480669 55708 net.cpp:122] Setting up conv1/3x3_s1_conv1/relu1_0_split
I0316 12:04:37.480684 55708 net.cpp:129] Top shape: 32 96 32 32 (3145728)
I0316 12:04:37.480691 55708 net.cpp:129] Top shape: 32 96 32 32 (3145728)
I0316 12:04:37.480698 55708 net.cpp:137] Memory required for data: 75891200
I0316 12:04:37.480711 55708 layer_factory.hpp:77] Creating layer inception_2a/1x1
I0316 12:04:37.480731 55708 net.cpp:84] Creating Layer inception_2a/1x1
I0316 12:04:37.480746 55708 net.cpp:406] inception_2a/1x1 <- conv1/3x3_s1_conv1/relu1_0_split_0
I0316 12:04:37.480759 55708 net.cpp:380] inception_2a/1x1 -> inception_2a/1x1
I0316 12:04:37.481323 55708 net.cpp:122] Setting up inception_2a/1x1
I0316 12:04:37.481343 55708 net.cpp:129] Top shape: 32 32 32 32 (1048576)
I0316 12:04:37.481351 55708 net.cpp:137] Memory required for data: 80085504
I0316 12:04:37.481372 55708 layer_factory.hpp:77] Creating layer inception_2a/1x1/bn1
I0316 12:04:37.481393 55708 net.cpp:84] Creating Layer inception_2a/1x1/bn1
I0316 12:04:37.481405 55708 net.cpp:406] inception_2a/1x1/bn1 <- inception_2a/1x1
I0316 12:04:37.481417 55708 net.cpp:367] inception_2a/1x1/bn1 -> inception_2a/1x1 (in-place)
I0316 12:04:37.481750 55708 net.cpp:122] Setting up inception_2a/1x1/bn1
I0316 12:04:37.481762 55708 net.cpp:129] Top shape: 32 32 32 32 (1048576)
I0316 12:04:37.481770 55708 net.cpp:137] Memory required for data: 84279808
I0316 12:04:37.481782 55708 layer_factory.hpp:77] Creating layer inception_2a/1x1/scale1
I0316 12:04:37.481796 55708 net.cpp:84] Creating Layer inception_2a/1x1/scale1
I0316 12:04:37.481807 55708 net.cpp:406] inception_2a/1x1/scale1 <- inception_2a/1x1
I0316 12:04:37.481817 55708 net.cpp:367] inception_2a/1x1/scale1 -> inception_2a/1x1 (in-place)
I0316 12:04:37.481878 55708 layer_factory.hpp:77] Creating layer inception_2a/1x1/scale1
I0316 12:04:37.482085 55708 net.cpp:122] Setting up inception_2a/1x1/scale1
I0316 12:04:37.482120 55708 net.cpp:129] Top shape: 32 32 32 32 (1048576)
I0316 12:04:37.482126 55708 net.cpp:137] Memory required for data: 88474112
I0316 12:04:37.482137 55708 layer_factory.hpp:77] Creating layer inception_2a/1x1/relu1
I0316 12:04:37.482147 55708 net.cpp:84] Creating Layer inception_2a/1x1/relu1
I0316 12:04:37.482156 55708 net.cpp:406] inception_2a/1x1/relu1 <- inception_2a/1x1
I0316 12:04:37.482165 55708 net.cpp:367] inception_2a/1x1/relu1 -> inception_2a/1x1 (in-place)
I0316 12:04:37.482175 55708 net.cpp:122] Setting up inception_2a/1x1/relu1
I0316 12:04:37.482183 55708 net.cpp:129] Top shape: 32 32 32 32 (1048576)
I0316 12:04:37.482192 55708 net.cpp:137] Memory required for data: 92668416
I0316 12:04:37.482197 55708 layer_factory.hpp:77] Creating layer inception_2a/3x3
I0316 12:04:37.482211 55708 net.cpp:84] Creating Layer inception_2a/3x3
I0316 12:04:37.482218 55708 net.cpp:406] inception_2a/3x3 <- conv1/3x3_s1_conv1/relu1_0_split_1
I0316 12:04:37.482231 55708 net.cpp:380] inception_2a/3x3 -> inception_2a/3x3
I0316 12:04:37.483043 55708 net.cpp:122] Setting up inception_2a/3x3
I0316 12:04:37.483057 55708 net.cpp:129] Top shape: 32 32 32 32 (1048576)
I0316 12:04:37.483063 55708 net.cpp:137] Memory required for data: 96862720
I0316 12:04:37.483076 55708 layer_factory.hpp:77] Creating layer inception_2a/3x3/bn1
I0316 12:04:37.483088 55708 net.cpp:84] Creating Layer inception_2a/3x3/bn1
I0316 12:04:37.483095 55708 net.cpp:406] inception_2a/3x3/bn1 <- inception_2a/3x3
I0316 12:04:37.483105 55708 net.cpp:367] inception_2a/3x3/bn1 -> inception_2a/3x3 (in-place)
I0316 12:04:37.483537 55708 net.cpp:122] Setting up inception_2a/3x3/bn1
I0316 12:04:37.483551 55708 net.cpp:129] Top shape: 32 32 32 32 (1048576)
I0316 12:04:37.483557 55708 net.cpp:137] Memory required for data: 101057024
I0316 12:04:37.483577 55708 layer_factory.hpp:77] Creating layer inception_2a/3x3/scale1
I0316 12:04:37.483592 55708 net.cpp:84] Creating Layer inception_2a/3x3/scale1
I0316 12:04:37.483599 55708 net.cpp:406] inception_2a/3x3/scale1 <- inception_2a/3x3
I0316 12:04:37.483609 55708 net.cpp:367] inception_2a/3x3/scale1 -> inception_2a/3x3 (in-place)
I0316 12:04:37.483747 55708 layer_factory.hpp:77] Creating layer inception_2a/3x3/scale1
I0316 12:04:37.483944 55708 net.cpp:122] Setting up inception_2a/3x3/scale1
I0316 12:04:37.483958 55708 net.cpp:129] Top shape: 32 32 32 32 (1048576)
I0316 12:04:37.483964 55708 net.cpp:137] Memory required for data: 105251328
I0316 12:04:37.483975 55708 layer_factory.hpp:77] Creating layer inception_2a/3x3/relu1
I0316 12:04:37.483986 55708 net.cpp:84] Creating Layer inception_2a/3x3/relu1
I0316 12:04:37.483994 55708 net.cpp:406] inception_2a/3x3/relu1 <- inception_2a/3x3
I0316 12:04:37.484002 55708 net.cpp:367] inception_2a/3x3/relu1 -> inception_2a/3x3 (in-place)
I0316 12:04:37.484012 55708 net.cpp:122] Setting up inception_2a/3x3/relu1
I0316 12:04:37.484023 55708 net.cpp:129] Top shape: 32 32 32 32 (1048576)
I0316 12:04:37.484030 55708 net.cpp:137] Memory required for data: 109445632
I0316 12:04:37.484035 55708 layer_factory.hpp:77] Creating layer inception_2a/output
I0316 12:04:37.484045 55708 net.cpp:84] Creating Layer inception_2a/output
I0316 12:04:37.484055 55708 net.cpp:406] inception_2a/output <- inception_2a/1x1
I0316 12:04:37.484062 55708 net.cpp:406] inception_2a/output <- inception_2a/3x3
I0316 12:04:37.484072 55708 net.cpp:380] inception_2a/output -> inception_2a/output
I0316 12:04:37.484100 55708 net.cpp:122] Setting up inception_2a/output
I0316 12:04:37.484114 55708 net.cpp:129] Top shape: 32 64 32 32 (2097152)
I0316 12:04:37.484120 55708 net.cpp:137] Memory required for data: 117834240
I0316 12:04:37.484126 55708 layer_factory.hpp:77] Creating layer inception_2a/output_inception_2a/output_0_split
I0316 12:04:37.484143 55708 net.cpp:84] Creating Layer inception_2a/output_inception_2a/output_0_split
I0316 12:04:37.484151 55708 net.cpp:406] inception_2a/output_inception_2a/output_0_split <- inception_2a/output
I0316 12:04:37.484161 55708 net.cpp:380] inception_2a/output_inception_2a/output_0_split -> inception_2a/output_inception_2a/output_0_split_0
I0316 12:04:37.484194 55708 net.cpp:380] inception_2a/output_inception_2a/output_0_split -> inception_2a/output_inception_2a/output_0_split_1
I0316 12:04:37.484253 55708 net.cpp:122] Setting up inception_2a/output_inception_2a/output_0_split
I0316 12:04:37.484267 55708 net.cpp:129] Top shape: 32 64 32 32 (2097152)
I0316 12:04:37.484275 55708 net.cpp:129] Top shape: 32 64 32 32 (2097152)
I0316 12:04:37.484282 55708 net.cpp:137] Memory required for data: 134611456
I0316 12:04:37.484289 55708 layer_factory.hpp:77] Creating layer inception_3a/1x1
I0316 12:04:37.484305 55708 net.cpp:84] Creating Layer inception_3a/1x1
I0316 12:04:37.484313 55708 net.cpp:406] inception_3a/1x1 <- inception_2a/output_inception_2a/output_0_split_0
I0316 12:04:37.484323 55708 net.cpp:380] inception_3a/1x1 -> inception_3a/1x1
I0316 12:04:37.484809 55708 net.cpp:122] Setting up inception_3a/1x1
I0316 12:04:37.484828 55708 net.cpp:129] Top shape: 32 32 32 32 (1048576)
I0316 12:04:37.484834 55708 net.cpp:137] Memory required for data: 138805760
I0316 12:04:37.484845 55708 layer_factory.hpp:77] Creating layer inception_3a/1x1/bn1
I0316 12:04:37.484860 55708 net.cpp:84] Creating Layer inception_3a/1x1/bn1
I0316 12:04:37.484874 55708 net.cpp:406] inception_3a/1x1/bn1 <- inception_3a/1x1
I0316 12:04:37.484884 55708 net.cpp:367] inception_3a/1x1/bn1 -> inception_3a/1x1 (in-place)
I0316 12:04:37.485278 55708 net.cpp:122] Setting up inception_3a/1x1/bn1
I0316 12:04:37.485291 55708 net.cpp:129] Top shape: 32 32 32 32 (1048576)
I0316 12:04:37.485299 55708 net.cpp:137] Memory required for data: 143000064
I0316 12:04:37.485313 55708 layer_factory.hpp:77] Creating layer inception_3a/1x1/scale1
I0316 12:04:37.485323 55708 net.cpp:84] Creating Layer inception_3a/1x1/scale1
I0316 12:04:37.485330 55708 net.cpp:406] inception_3a/1x1/scale1 <- inception_3a/1x1
I0316 12:04:37.485342 55708 net.cpp:367] inception_3a/1x1/scale1 -> inception_3a/1x1 (in-place)
I0316 12:04:37.485445 55708 layer_factory.hpp:77] Creating layer inception_3a/1x1/scale1
I0316 12:04:37.485664 55708 net.cpp:122] Setting up inception_3a/1x1/scale1
I0316 12:04:37.485677 55708 net.cpp:129] Top shape: 32 32 32 32 (1048576)
I0316 12:04:37.485685 55708 net.cpp:137] Memory required for data: 147194368
I0316 12:04:37.485697 55708 layer_factory.hpp:77] Creating layer inception_3a/1x1/relu1
I0316 12:04:37.485707 55708 net.cpp:84] Creating Layer inception_3a/1x1/relu1
I0316 12:04:37.485713 55708 net.cpp:406] inception_3a/1x1/relu1 <- inception_3a/1x1
I0316 12:04:37.485724 55708 net.cpp:367] inception_3a/1x1/relu1 -> inception_3a/1x1 (in-place)
I0316 12:04:37.485735 55708 net.cpp:122] Setting up inception_3a/1x1/relu1
I0316 12:04:37.485744 55708 net.cpp:129] Top shape: 32 32 32 32 (1048576)
I0316 12:04:37.485750 55708 net.cpp:137] Memory required for data: 151388672
I0316 12:04:37.485759 55708 layer_factory.hpp:77] Creating layer inception_3a/3x3
I0316 12:04:37.485771 55708 net.cpp:84] Creating Layer inception_3a/3x3
I0316 12:04:37.485780 55708 net.cpp:406] inception_3a/3x3 <- inception_2a/output_inception_2a/output_0_split_1
I0316 12:04:37.485790 55708 net.cpp:380] inception_3a/3x3 -> inception_3a/3x3
I0316 12:04:37.486634 55708 net.cpp:122] Setting up inception_3a/3x3
I0316 12:04:37.486647 55708 net.cpp:129] Top shape: 32 48 32 32 (1572864)
I0316 12:04:37.486654 55708 net.cpp:137] Memory required for data: 157680128
I0316 12:04:37.486665 55708 layer_factory.hpp:77] Creating layer inception_3a/3x3/bn1
I0316 12:04:37.486678 55708 net.cpp:84] Creating Layer inception_3a/3x3/bn1
I0316 12:04:37.486685 55708 net.cpp:406] inception_3a/3x3/bn1 <- inception_3a/3x3
I0316 12:04:37.486696 55708 net.cpp:367] inception_3a/3x3/bn1 -> inception_3a/3x3 (in-place)
I0316 12:04:37.487077 55708 net.cpp:122] Setting up inception_3a/3x3/bn1
I0316 12:04:37.487092 55708 net.cpp:129] Top shape: 32 48 32 32 (1572864)
I0316 12:04:37.487097 55708 net.cpp:137] Memory required for data: 163971584
I0316 12:04:37.487118 55708 layer_factory.hpp:77] Creating layer inception_3a/3x3/scale1
I0316 12:04:37.487152 55708 net.cpp:84] Creating Layer inception_3a/3x3/scale1
I0316 12:04:37.487161 55708 net.cpp:406] inception_3a/3x3/scale1 <- inception_3a/3x3
I0316 12:04:37.487170 55708 net.cpp:367] inception_3a/3x3/scale1 -> inception_3a/3x3 (in-place)
I0316 12:04:37.487236 55708 layer_factory.hpp:77] Creating layer inception_3a/3x3/scale1
I0316 12:04:37.487429 55708 net.cpp:122] Setting up inception_3a/3x3/scale1
I0316 12:04:37.487457 55708 net.cpp:129] Top shape: 32 48 32 32 (1572864)
I0316 12:04:37.487462 55708 net.cpp:137] Memory required for data: 170263040
I0316 12:04:37.487469 55708 layer_factory.hpp:77] Creating layer inception_3a/3x3/relu1
I0316 12:04:37.487476 55708 net.cpp:84] Creating Layer inception_3a/3x3/relu1
I0316 12:04:37.487481 55708 net.cpp:406] inception_3a/3x3/relu1 <- inception_3a/3x3
I0316 12:04:37.487488 55708 net.cpp:367] inception_3a/3x3/relu1 -> inception_3a/3x3 (in-place)
I0316 12:04:37.487493 55708 net.cpp:122] Setting up inception_3a/3x3/relu1
I0316 12:04:37.487501 55708 net.cpp:129] Top shape: 32 48 32 32 (1572864)
I0316 12:04:37.487507 55708 net.cpp:137] Memory required for data: 176554496
I0316 12:04:37.487511 55708 layer_factory.hpp:77] Creating layer inception_3a/output
I0316 12:04:37.487517 55708 net.cpp:84] Creating Layer inception_3a/output
I0316 12:04:37.487521 55708 net.cpp:406] inception_3a/output <- inception_3a/1x1
I0316 12:04:37.487529 55708 net.cpp:406] inception_3a/output <- inception_3a/3x3
I0316 12:04:37.487534 55708 net.cpp:380] inception_3a/output -> inception_3a/output
I0316 12:04:37.487553 55708 net.cpp:122] Setting up inception_3a/output
I0316 12:04:37.487560 55708 net.cpp:129] Top shape: 32 80 32 32 (2621440)
I0316 12:04:37.487565 55708 net.cpp:137] Memory required for data: 187040256
I0316 12:04:37.487569 55708 layer_factory.hpp:77] Creating layer inception_3a/output_inception_3a/output_0_split
I0316 12:04:37.487576 55708 net.cpp:84] Creating Layer inception_3a/output_inception_3a/output_0_split
I0316 12:04:37.487579 55708 net.cpp:406] inception_3a/output_inception_3a/output_0_split <- inception_3a/output
I0316 12:04:37.487588 55708 net.cpp:380] inception_3a/output_inception_3a/output_0_split -> inception_3a/output_inception_3a/output_0_split_0
I0316 12:04:37.487599 55708 net.cpp:380] inception_3a/output_inception_3a/output_0_split -> inception_3a/output_inception_3a/output_0_split_1
I0316 12:04:37.487637 55708 net.cpp:122] Setting up inception_3a/output_inception_3a/output_0_split
I0316 12:04:37.487646 55708 net.cpp:129] Top shape: 32 80 32 32 (2621440)
I0316 12:04:37.487653 55708 net.cpp:129] Top shape: 32 80 32 32 (2621440)
I0316 12:04:37.487658 55708 net.cpp:137] Memory required for data: 208011776
I0316 12:04:37.487661 55708 layer_factory.hpp:77] Creating layer downsample_4/3x3_s2
I0316 12:04:37.487670 55708 net.cpp:84] Creating Layer downsample_4/3x3_s2
I0316 12:04:37.487676 55708 net.cpp:406] downsample_4/3x3_s2 <- inception_3a/output_inception_3a/output_0_split_0
I0316 12:04:37.487684 55708 net.cpp:380] downsample_4/3x3_s2 -> downsample_4/3x3_s2
I0316 12:04:37.488472 55708 net.cpp:122] Setting up downsample_4/3x3_s2
I0316 12:04:37.488483 55708 net.cpp:129] Top shape: 32 80 16 16 (655360)
I0316 12:04:37.488489 55708 net.cpp:137] Memory required for data: 210633216
I0316 12:04:37.488497 55708 layer_factory.hpp:77] Creating layer downsample_4/3x3_s2/bn1
I0316 12:04:37.488504 55708 net.cpp:84] Creating Layer downsample_4/3x3_s2/bn1
I0316 12:04:37.488509 55708 net.cpp:406] downsample_4/3x3_s2/bn1 <- downsample_4/3x3_s2
I0316 12:04:37.488518 55708 net.cpp:367] downsample_4/3x3_s2/bn1 -> downsample_4/3x3_s2 (in-place)
I0316 12:04:37.488744 55708 net.cpp:122] Setting up downsample_4/3x3_s2/bn1
I0316 12:04:37.488752 55708 net.cpp:129] Top shape: 32 80 16 16 (655360)
I0316 12:04:37.488757 55708 net.cpp:137] Memory required for data: 213254656
I0316 12:04:37.488767 55708 layer_factory.hpp:77] Creating layer downsample_4/3x3_s2/scale1
I0316 12:04:37.488775 55708 net.cpp:84] Creating Layer downsample_4/3x3_s2/scale1
I0316 12:04:37.488790 55708 net.cpp:406] downsample_4/3x3_s2/scale1 <- downsample_4/3x3_s2
I0316 12:04:37.488797 55708 net.cpp:367] downsample_4/3x3_s2/scale1 -> downsample_4/3x3_s2 (in-place)
I0316 12:04:37.488842 55708 layer_factory.hpp:77] Creating layer downsample_4/3x3_s2/scale1
I0316 12:04:37.488968 55708 net.cpp:122] Setting up downsample_4/3x3_s2/scale1
I0316 12:04:37.488978 55708 net.cpp:129] Top shape: 32 80 16 16 (655360)
I0316 12:04:37.488982 55708 net.cpp:137] Memory required for data: 215876096
I0316 12:04:37.488991 55708 layer_factory.hpp:77] Creating layer downsample_4/3x3_s2/relu1
I0316 12:04:37.488997 55708 net.cpp:84] Creating Layer downsample_4/3x3_s2/relu1
I0316 12:04:37.489002 55708 net.cpp:406] downsample_4/3x3_s2/relu1 <- downsample_4/3x3_s2
I0316 12:04:37.489008 55708 net.cpp:367] downsample_4/3x3_s2/relu1 -> downsample_4/3x3_s2 (in-place)
I0316 12:04:37.489017 55708 net.cpp:122] Setting up downsample_4/3x3_s2/relu1
I0316 12:04:37.489022 55708 net.cpp:129] Top shape: 32 80 16 16 (655360)
I0316 12:04:37.489025 55708 net.cpp:137] Memory required for data: 218497536
I0316 12:04:37.489029 55708 layer_factory.hpp:77] Creating layer downsample_4/pool_s2
I0316 12:04:37.489038 55708 net.cpp:84] Creating Layer downsample_4/pool_s2
I0316 12:04:37.489043 55708 net.cpp:406] downsample_4/pool_s2 <- inception_3a/output_inception_3a/output_0_split_1
I0316 12:04:37.489049 55708 net.cpp:380] downsample_4/pool_s2 -> downsample_4/pool_s2
I0316 12:04:37.489085 55708 net.cpp:122] Setting up downsample_4/pool_s2
I0316 12:04:37.489094 55708 net.cpp:129] Top shape: 32 80 16 16 (655360)
I0316 12:04:37.489099 55708 net.cpp:137] Memory required for data: 221118976
I0316 12:04:37.489102 55708 layer_factory.hpp:77] Creating layer downsample_4/output
I0316 12:04:37.489115 55708 net.cpp:84] Creating Layer downsample_4/output
I0316 12:04:37.489121 55708 net.cpp:406] downsample_4/output <- downsample_4/3x3_s2
I0316 12:04:37.489126 55708 net.cpp:406] downsample_4/output <- downsample_4/pool_s2
I0316 12:04:37.489133 55708 net.cpp:380] downsample_4/output -> downsample_4/output
I0316 12:04:37.489157 55708 net.cpp:122] Setting up downsample_4/output
I0316 12:04:37.489166 55708 net.cpp:129] Top shape: 32 160 16 16 (1310720)
I0316 12:04:37.489171 55708 net.cpp:137] Memory required for data: 226361856
I0316 12:04:37.489174 55708 layer_factory.hpp:77] Creating layer downsample_4/output_downsample_4/output_0_split
I0316 12:04:37.489181 55708 net.cpp:84] Creating Layer downsample_4/output_downsample_4/output_0_split
I0316 12:04:37.489187 55708 net.cpp:406] downsample_4/output_downsample_4/output_0_split <- downsample_4/output
I0316 12:04:37.489193 55708 net.cpp:380] downsample_4/output_downsample_4/output_0_split -> downsample_4/output_downsample_4/output_0_split_0
I0316 12:04:37.489202 55708 net.cpp:380] downsample_4/output_downsample_4/output_0_split -> downsample_4/output_downsample_4/output_0_split_1
I0316 12:04:37.489239 55708 net.cpp:122] Setting up downsample_4/output_downsample_4/output_0_split
I0316 12:04:37.489248 55708 net.cpp:129] Top shape: 32 160 16 16 (1310720)
I0316 12:04:37.489254 55708 net.cpp:129] Top shape: 32 160 16 16 (1310720)
I0316 12:04:37.489259 55708 net.cpp:137] Memory required for data: 236847616
I0316 12:04:37.489262 55708 layer_factory.hpp:77] Creating layer inception_5a/1x1
I0316 12:04:37.489272 55708 net.cpp:84] Creating Layer inception_5a/1x1
I0316 12:04:37.489279 55708 net.cpp:406] inception_5a/1x1 <- downsample_4/output_downsample_4/output_0_split_0
I0316 12:04:37.489284 55708 net.cpp:380] inception_5a/1x1 -> inception_5a/1x1
I0316 12:04:37.489722 55708 net.cpp:122] Setting up inception_5a/1x1
I0316 12:04:37.489732 55708 net.cpp:129] Top shape: 32 112 16 16 (917504)
I0316 12:04:37.489737 55708 net.cpp:137] Memory required for data: 240517632
I0316 12:04:37.489743 55708 layer_factory.hpp:77] Creating layer inception_5a/1x1/bn1
I0316 12:04:37.489751 55708 net.cpp:84] Creating Layer inception_5a/1x1/bn1
I0316 12:04:37.489758 55708 net.cpp:406] inception_5a/1x1/bn1 <- inception_5a/1x1
I0316 12:04:37.489763 55708 net.cpp:367] inception_5a/1x1/bn1 -> inception_5a/1x1 (in-place)
I0316 12:04:37.489990 55708 net.cpp:122] Setting up inception_5a/1x1/bn1
I0316 12:04:37.490000 55708 net.cpp:129] Top shape: 32 112 16 16 (917504)
I0316 12:04:37.490005 55708 net.cpp:137] Memory required for data: 244187648
I0316 12:04:37.490013 55708 layer_factory.hpp:77] Creating layer inception_5a/1x1/scale1
I0316 12:04:37.490020 55708 net.cpp:84] Creating Layer inception_5a/1x1/scale1
I0316 12:04:37.490025 55708 net.cpp:406] inception_5a/1x1/scale1 <- inception_5a/1x1
I0316 12:04:37.490032 55708 net.cpp:367] inception_5a/1x1/scale1 -> inception_5a/1x1 (in-place)
I0316 12:04:37.490072 55708 layer_factory.hpp:77] Creating layer inception_5a/1x1/scale1
I0316 12:04:37.490195 55708 net.cpp:122] Setting up inception_5a/1x1/scale1
I0316 12:04:37.490203 55708 net.cpp:129] Top shape: 32 112 16 16 (917504)
I0316 12:04:37.490208 55708 net.cpp:137] Memory required for data: 247857664
I0316 12:04:37.490216 55708 layer_factory.hpp:77] Creating layer inception_5a/1x1/relu1
I0316 12:04:37.490222 55708 net.cpp:84] Creating Layer inception_5a/1x1/relu1
I0316 12:04:37.490226 55708 net.cpp:406] inception_5a/1x1/relu1 <- inception_5a/1x1
I0316 12:04:37.490233 55708 net.cpp:367] inception_5a/1x1/relu1 -> inception_5a/1x1 (in-place)
I0316 12:04:37.490239 55708 net.cpp:122] Setting up inception_5a/1x1/relu1
I0316 12:04:37.490244 55708 net.cpp:129] Top shape: 32 112 16 16 (917504)
I0316 12:04:37.490249 55708 net.cpp:137] Memory required for data: 251527680
I0316 12:04:37.490254 55708 layer_factory.hpp:77] Creating layer inception_5a/3x3
I0316 12:04:37.490262 55708 net.cpp:84] Creating Layer inception_5a/3x3
I0316 12:04:37.490267 55708 net.cpp:406] inception_5a/3x3 <- downsample_4/output_downsample_4/output_0_split_1
I0316 12:04:37.490274 55708 net.cpp:380] inception_5a/3x3 -> inception_5a/3x3
I0316 12:04:37.491130 55708 net.cpp:122] Setting up inception_5a/3x3
I0316 12:04:37.491139 55708 net.cpp:129] Top shape: 32 48 16 16 (393216)
I0316 12:04:37.491143 55708 net.cpp:137] Memory required for data: 253100544
I0316 12:04:37.491150 55708 layer_factory.hpp:77] Creating layer inception_5a/3x3/bn1
I0316 12:04:37.491159 55708 net.cpp:84] Creating Layer inception_5a/3x3/bn1
I0316 12:04:37.491163 55708 net.cpp:406] inception_5a/3x3/bn1 <- inception_5a/3x3
I0316 12:04:37.491170 55708 net.cpp:367] inception_5a/3x3/bn1 -> inception_5a/3x3 (in-place)
I0316 12:04:37.491389 55708 net.cpp:122] Setting up inception_5a/3x3/bn1
I0316 12:04:37.491401 55708 net.cpp:129] Top shape: 32 48 16 16 (393216)
I0316 12:04:37.491406 55708 net.cpp:137] Memory required for data: 254673408
I0316 12:04:37.491415 55708 layer_factory.hpp:77] Creating layer inception_5a/3x3/scale1
I0316 12:04:37.491421 55708 net.cpp:84] Creating Layer inception_5a/3x3/scale1
I0316 12:04:37.491427 55708 net.cpp:406] inception_5a/3x3/scale1 <- inception_5a/3x3
I0316 12:04:37.491433 55708 net.cpp:367] inception_5a/3x3/scale1 -> inception_5a/3x3 (in-place)
I0316 12:04:37.491473 55708 layer_factory.hpp:77] Creating layer inception_5a/3x3/scale1
I0316 12:04:37.491602 55708 net.cpp:122] Setting up inception_5a/3x3/scale1
I0316 12:04:37.491612 55708 net.cpp:129] Top shape: 32 48 16 16 (393216)
I0316 12:04:37.491616 55708 net.cpp:137] Memory required for data: 256246272
I0316 12:04:37.491623 55708 layer_factory.hpp:77] Creating layer inception_5a/3x3/relu1
I0316 12:04:37.491629 55708 net.cpp:84] Creating Layer inception_5a/3x3/relu1
I0316 12:04:37.491634 55708 net.cpp:406] inception_5a/3x3/relu1 <- inception_5a/3x3
I0316 12:04:37.491641 55708 net.cpp:367] inception_5a/3x3/relu1 -> inception_5a/3x3 (in-place)
I0316 12:04:37.491647 55708 net.cpp:122] Setting up inception_5a/3x3/relu1
I0316 12:04:37.491652 55708 net.cpp:129] Top shape: 32 48 16 16 (393216)
I0316 12:04:37.491657 55708 net.cpp:137] Memory required for data: 257819136
I0316 12:04:37.491662 55708 layer_factory.hpp:77] Creating layer inception_5a/output
I0316 12:04:37.491667 55708 net.cpp:84] Creating Layer inception_5a/output
I0316 12:04:37.491672 55708 net.cpp:406] inception_5a/output <- inception_5a/1x1
I0316 12:04:37.491688 55708 net.cpp:406] inception_5a/output <- inception_5a/3x3
I0316 12:04:37.491694 55708 net.cpp:380] inception_5a/output -> inception_5a/output
I0316 12:04:37.491712 55708 net.cpp:122] Setting up inception_5a/output
I0316 12:04:37.491722 55708 net.cpp:129] Top shape: 32 160 16 16 (1310720)
I0316 12:04:37.491729 55708 net.cpp:137] Memory required for data: 263062016
I0316 12:04:37.491732 55708 layer_factory.hpp:77] Creating layer inception_5a/output_inception_5a/output_0_split
I0316 12:04:37.491739 55708 net.cpp:84] Creating Layer inception_5a/output_inception_5a/output_0_split
I0316 12:04:37.491744 55708 net.cpp:406] inception_5a/output_inception_5a/output_0_split <- inception_5a/output
I0316 12:04:37.491755 55708 net.cpp:380] inception_5a/output_inception_5a/output_0_split -> inception_5a/output_inception_5a/output_0_split_0
I0316 12:04:37.491765 55708 net.cpp:380] inception_5a/output_inception_5a/output_0_split -> inception_5a/output_inception_5a/output_0_split_1
I0316 12:04:37.491804 55708 net.cpp:122] Setting up inception_5a/output_inception_5a/output_0_split
I0316 12:04:37.491811 55708 net.cpp:129] Top shape: 32 160 16 16 (1310720)
I0316 12:04:37.491818 55708 net.cpp:129] Top shape: 32 160 16 16 (1310720)
I0316 12:04:37.491822 55708 net.cpp:137] Memory required for data: 273547776
I0316 12:04:37.491827 55708 layer_factory.hpp:77] Creating layer inception_6a/1x1
I0316 12:04:37.491835 55708 net.cpp:84] Creating Layer inception_6a/1x1
I0316 12:04:37.491842 55708 net.cpp:406] inception_6a/1x1 <- inception_5a/output_inception_5a/output_0_split_0
I0316 12:04:37.491848 55708 net.cpp:380] inception_6a/1x1 -> inception_6a/1x1
I0316 12:04:37.492247 55708 net.cpp:122] Setting up inception_6a/1x1
I0316 12:04:37.492256 55708 net.cpp:129] Top shape: 32 96 16 16 (786432)
I0316 12:04:37.492261 55708 net.cpp:137] Memory required for data: 276693504
I0316 12:04:37.492269 55708 layer_factory.hpp:77] Creating layer inception_6a/1x1/bn1
I0316 12:04:37.492276 55708 net.cpp:84] Creating Layer inception_6a/1x1/bn1
I0316 12:04:37.492280 55708 net.cpp:406] inception_6a/1x1/bn1 <- inception_6a/1x1
I0316 12:04:37.492288 55708 net.cpp:367] inception_6a/1x1/bn1 -> inception_6a/1x1 (in-place)
I0316 12:04:37.492520 55708 net.cpp:122] Setting up inception_6a/1x1/bn1
I0316 12:04:37.492530 55708 net.cpp:129] Top shape: 32 96 16 16 (786432)
I0316 12:04:37.492535 55708 net.cpp:137] Memory required for data: 279839232
I0316 12:04:37.492544 55708 layer_factory.hpp:77] Creating layer inception_6a/1x1/scale1
I0316 12:04:37.492552 55708 net.cpp:84] Creating Layer inception_6a/1x1/scale1
I0316 12:04:37.492556 55708 net.cpp:406] inception_6a/1x1/scale1 <- inception_6a/1x1
I0316 12:04:37.492563 55708 net.cpp:367] inception_6a/1x1/scale1 -> inception_6a/1x1 (in-place)
I0316 12:04:37.492604 55708 layer_factory.hpp:77] Creating layer inception_6a/1x1/scale1
I0316 12:04:37.492733 55708 net.cpp:122] Setting up inception_6a/1x1/scale1
I0316 12:04:37.492741 55708 net.cpp:129] Top shape: 32 96 16 16 (786432)
I0316 12:04:37.492746 55708 net.cpp:137] Memory required for data: 282984960
I0316 12:04:37.492754 55708 layer_factory.hpp:77] Creating layer inception_6a/1x1/relu1
I0316 12:04:37.492760 55708 net.cpp:84] Creating Layer inception_6a/1x1/relu1
I0316 12:04:37.492764 55708 net.cpp:406] inception_6a/1x1/relu1 <- inception_6a/1x1
I0316 12:04:37.492770 55708 net.cpp:367] inception_6a/1x1/relu1 -> inception_6a/1x1 (in-place)
I0316 12:04:37.492777 55708 net.cpp:122] Setting up inception_6a/1x1/relu1
I0316 12:04:37.492784 55708 net.cpp:129] Top shape: 32 96 16 16 (786432)
I0316 12:04:37.492786 55708 net.cpp:137] Memory required for data: 286130688
I0316 12:04:37.492790 55708 layer_factory.hpp:77] Creating layer inception_6a/3x3
I0316 12:04:37.492800 55708 net.cpp:84] Creating Layer inception_6a/3x3
I0316 12:04:37.492805 55708 net.cpp:406] inception_6a/3x3 <- inception_5a/output_inception_5a/output_0_split_1
I0316 12:04:37.492812 55708 net.cpp:380] inception_6a/3x3 -> inception_6a/3x3
I0316 12:04:37.493853 55708 net.cpp:122] Setting up inception_6a/3x3
I0316 12:04:37.493877 55708 net.cpp:129] Top shape: 32 64 16 16 (524288)
I0316 12:04:37.493881 55708 net.cpp:137] Memory required for data: 288227840
I0316 12:04:37.493896 55708 layer_factory.hpp:77] Creating layer inception_6a/3x3/bn1
I0316 12:04:37.493904 55708 net.cpp:84] Creating Layer inception_6a/3x3/bn1
I0316 12:04:37.493911 55708 net.cpp:406] inception_6a/3x3/bn1 <- inception_6a/3x3
I0316 12:04:37.493918 55708 net.cpp:367] inception_6a/3x3/bn1 -> inception_6a/3x3 (in-place)
I0316 12:04:37.494129 55708 net.cpp:122] Setting up inception_6a/3x3/bn1
I0316 12:04:37.494138 55708 net.cpp:129] Top shape: 32 64 16 16 (524288)
I0316 12:04:37.494143 55708 net.cpp:137] Memory required for data: 290324992
I0316 12:04:37.494151 55708 layer_factory.hpp:77] Creating layer inception_6a/3x3/scale1
I0316 12:04:37.494158 55708 net.cpp:84] Creating Layer inception_6a/3x3/scale1
I0316 12:04:37.494163 55708 net.cpp:406] inception_6a/3x3/scale1 <- inception_6a/3x3
I0316 12:04:37.494170 55708 net.cpp:367] inception_6a/3x3/scale1 -> inception_6a/3x3 (in-place)
I0316 12:04:37.494210 55708 layer_factory.hpp:77] Creating layer inception_6a/3x3/scale1
I0316 12:04:37.494330 55708 net.cpp:122] Setting up inception_6a/3x3/scale1
I0316 12:04:37.494338 55708 net.cpp:129] Top shape: 32 64 16 16 (524288)
I0316 12:04:37.494343 55708 net.cpp:137] Memory required for data: 292422144
I0316 12:04:37.494350 55708 layer_factory.hpp:77] Creating layer inception_6a/3x3/relu1
I0316 12:04:37.494356 55708 net.cpp:84] Creating Layer inception_6a/3x3/relu1
I0316 12:04:37.494360 55708 net.cpp:406] inception_6a/3x3/relu1 <- inception_6a/3x3
I0316 12:04:37.494369 55708 net.cpp:367] inception_6a/3x3/relu1 -> inception_6a/3x3 (in-place)
I0316 12:04:37.494375 55708 net.cpp:122] Setting up inception_6a/3x3/relu1
I0316 12:04:37.494381 55708 net.cpp:129] Top shape: 32 64 16 16 (524288)
I0316 12:04:37.494385 55708 net.cpp:137] Memory required for data: 294519296
I0316 12:04:37.494390 55708 layer_factory.hpp:77] Creating layer inception_6a/output
I0316 12:04:37.494396 55708 net.cpp:84] Creating Layer inception_6a/output
I0316 12:04:37.494400 55708 net.cpp:406] inception_6a/output <- inception_6a/1x1
I0316 12:04:37.494406 55708 net.cpp:406] inception_6a/output <- inception_6a/3x3
I0316 12:04:37.494413 55708 net.cpp:380] inception_6a/output -> inception_6a/output
I0316 12:04:37.494431 55708 net.cpp:122] Setting up inception_6a/output
I0316 12:04:37.494438 55708 net.cpp:129] Top shape: 32 160 16 16 (1310720)
I0316 12:04:37.494442 55708 net.cpp:137] Memory required for data: 299762176
I0316 12:04:37.494447 55708 layer_factory.hpp:77] Creating layer inception_6a/output_inception_6a/output_0_split
I0316 12:04:37.494453 55708 net.cpp:84] Creating Layer inception_6a/output_inception_6a/output_0_split
I0316 12:04:37.494457 55708 net.cpp:406] inception_6a/output_inception_6a/output_0_split <- inception_6a/output
I0316 12:04:37.494464 55708 net.cpp:380] inception_6a/output_inception_6a/output_0_split -> inception_6a/output_inception_6a/output_0_split_0
I0316 12:04:37.494473 55708 net.cpp:380] inception_6a/output_inception_6a/output_0_split -> inception_6a/output_inception_6a/output_0_split_1
I0316 12:04:37.494518 55708 net.cpp:122] Setting up inception_6a/output_inception_6a/output_0_split
I0316 12:04:37.494525 55708 net.cpp:129] Top shape: 32 160 16 16 (1310720)
I0316 12:04:37.494532 55708 net.cpp:129] Top shape: 32 160 16 16 (1310720)
I0316 12:04:37.494537 55708 net.cpp:137] Memory required for data: 310247936
I0316 12:04:37.494541 55708 layer_factory.hpp:77] Creating layer inception_7a/1x1
I0316 12:04:37.494550 55708 net.cpp:84] Creating Layer inception_7a/1x1
I0316 12:04:37.494555 55708 net.cpp:406] inception_7a/1x1 <- inception_6a/output_inception_6a/output_0_split_0
I0316 12:04:37.494565 55708 net.cpp:380] inception_7a/1x1 -> inception_7a/1x1
I0316 12:04:37.494944 55708 net.cpp:122] Setting up inception_7a/1x1
I0316 12:04:37.494953 55708 net.cpp:129] Top shape: 32 80 16 16 (655360)
I0316 12:04:37.494957 55708 net.cpp:137] Memory required for data: 312869376
I0316 12:04:37.494976 55708 layer_factory.hpp:77] Creating layer inception_7a/1x1/bn1
I0316 12:04:37.494983 55708 net.cpp:84] Creating Layer inception_7a/1x1/bn1
I0316 12:04:37.494988 55708 net.cpp:406] inception_7a/1x1/bn1 <- inception_7a/1x1
I0316 12:04:37.494995 55708 net.cpp:367] inception_7a/1x1/bn1 -> inception_7a/1x1 (in-place)
I0316 12:04:37.495210 55708 net.cpp:122] Setting up inception_7a/1x1/bn1
I0316 12:04:37.495218 55708 net.cpp:129] Top shape: 32 80 16 16 (655360)
I0316 12:04:37.495222 55708 net.cpp:137] Memory required for data: 315490816
I0316 12:04:37.495231 55708 layer_factory.hpp:77] Creating layer inception_7a/1x1/scale1
I0316 12:04:37.495239 55708 net.cpp:84] Creating Layer inception_7a/1x1/scale1
I0316 12:04:37.495244 55708 net.cpp:406] inception_7a/1x1/scale1 <- inception_7a/1x1
I0316 12:04:37.495249 55708 net.cpp:367] inception_7a/1x1/scale1 -> inception_7a/1x1 (in-place)
I0316 12:04:37.495288 55708 layer_factory.hpp:77] Creating layer inception_7a/1x1/scale1
I0316 12:04:37.495416 55708 net.cpp:122] Setting up inception_7a/1x1/scale1
I0316 12:04:37.495425 55708 net.cpp:129] Top shape: 32 80 16 16 (655360)
I0316 12:04:37.495430 55708 net.cpp:137] Memory required for data: 318112256
I0316 12:04:37.495437 55708 layer_factory.hpp:77] Creating layer inception_7a/1x1/relu1
I0316 12:04:37.495445 55708 net.cpp:84] Creating Layer inception_7a/1x1/relu1
I0316 12:04:37.495448 55708 net.cpp:406] inception_7a/1x1/relu1 <- inception_7a/1x1
I0316 12:04:37.495455 55708 net.cpp:367] inception_7a/1x1/relu1 -> inception_7a/1x1 (in-place)
I0316 12:04:37.495460 55708 net.cpp:122] Setting up inception_7a/1x1/relu1
I0316 12:04:37.495467 55708 net.cpp:129] Top shape: 32 80 16 16 (655360)
I0316 12:04:37.495471 55708 net.cpp:137] Memory required for data: 320733696
I0316 12:04:37.495476 55708 layer_factory.hpp:77] Creating layer inception_7a/3x3
I0316 12:04:37.495483 55708 net.cpp:84] Creating Layer inception_7a/3x3
I0316 12:04:37.495489 55708 net.cpp:406] inception_7a/3x3 <- inception_6a/output_inception_6a/output_0_split_1
I0316 12:04:37.495496 55708 net.cpp:380] inception_7a/3x3 -> inception_7a/3x3
I0316 12:04:37.496752 55708 net.cpp:122] Setting up inception_7a/3x3
I0316 12:04:37.496764 55708 net.cpp:129] Top shape: 32 80 16 16 (655360)
I0316 12:04:37.496769 55708 net.cpp:137] Memory required for data: 323355136
I0316 12:04:37.496778 55708 layer_factory.hpp:77] Creating layer inception_7a/3x3/bn1
I0316 12:04:37.496786 55708 net.cpp:84] Creating Layer inception_7a/3x3/bn1
I0316 12:04:37.496790 55708 net.cpp:406] inception_7a/3x3/bn1 <- inception_7a/3x3
I0316 12:04:37.496799 55708 net.cpp:367] inception_7a/3x3/bn1 -> inception_7a/3x3 (in-place)
I0316 12:04:37.497014 55708 net.cpp:122] Setting up inception_7a/3x3/bn1
I0316 12:04:37.497023 55708 net.cpp:129] Top shape: 32 80 16 16 (655360)
I0316 12:04:37.497028 55708 net.cpp:137] Memory required for data: 325976576
I0316 12:04:37.497037 55708 layer_factory.hpp:77] Creating layer inception_7a/3x3/scale1
I0316 12:04:37.497045 55708 net.cpp:84] Creating Layer inception_7a/3x3/scale1
I0316 12:04:37.497048 55708 net.cpp:406] inception_7a/3x3/scale1 <- inception_7a/3x3
I0316 12:04:37.497054 55708 net.cpp:367] inception_7a/3x3/scale1 -> inception_7a/3x3 (in-place)
I0316 12:04:37.497097 55708 layer_factory.hpp:77] Creating layer inception_7a/3x3/scale1
I0316 12:04:37.497220 55708 net.cpp:122] Setting up inception_7a/3x3/scale1
I0316 12:04:37.497228 55708 net.cpp:129] Top shape: 32 80 16 16 (655360)
I0316 12:04:37.497232 55708 net.cpp:137] Memory required for data: 328598016
I0316 12:04:37.497241 55708 layer_factory.hpp:77] Creating layer inception_7a/3x3/relu1
I0316 12:04:37.497246 55708 net.cpp:84] Creating Layer inception_7a/3x3/relu1
I0316 12:04:37.497251 55708 net.cpp:406] inception_7a/3x3/relu1 <- inception_7a/3x3
I0316 12:04:37.497256 55708 net.cpp:367] inception_7a/3x3/relu1 -> inception_7a/3x3 (in-place)
I0316 12:04:37.497263 55708 net.cpp:122] Setting up inception_7a/3x3/relu1
I0316 12:04:37.497269 55708 net.cpp:129] Top shape: 32 80 16 16 (655360)
I0316 12:04:37.497273 55708 net.cpp:137] Memory required for data: 331219456
I0316 12:04:37.497289 55708 layer_factory.hpp:77] Creating layer inception_7a/output
I0316 12:04:37.497296 55708 net.cpp:84] Creating Layer inception_7a/output
I0316 12:04:37.497300 55708 net.cpp:406] inception_7a/output <- inception_7a/1x1
I0316 12:04:37.497306 55708 net.cpp:406] inception_7a/output <- inception_7a/3x3
I0316 12:04:37.497313 55708 net.cpp:380] inception_7a/output -> inception_7a/output
I0316 12:04:37.497332 55708 net.cpp:122] Setting up inception_7a/output
I0316 12:04:37.497340 55708 net.cpp:129] Top shape: 32 160 16 16 (1310720)
I0316 12:04:37.497344 55708 net.cpp:137] Memory required for data: 336462336
I0316 12:04:37.497349 55708 layer_factory.hpp:77] Creating layer inception_7a/output_inception_7a/output_0_split
I0316 12:04:37.497356 55708 net.cpp:84] Creating Layer inception_7a/output_inception_7a/output_0_split
I0316 12:04:37.497360 55708 net.cpp:406] inception_7a/output_inception_7a/output_0_split <- inception_7a/output
I0316 12:04:37.497366 55708 net.cpp:380] inception_7a/output_inception_7a/output_0_split -> inception_7a/output_inception_7a/output_0_split_0
I0316 12:04:37.497375 55708 net.cpp:380] inception_7a/output_inception_7a/output_0_split -> inception_7a/output_inception_7a/output_0_split_1
I0316 12:04:37.497412 55708 net.cpp:122] Setting up inception_7a/output_inception_7a/output_0_split
I0316 12:04:37.497421 55708 net.cpp:129] Top shape: 32 160 16 16 (1310720)
I0316 12:04:37.497426 55708 net.cpp:129] Top shape: 32 160 16 16 (1310720)
I0316 12:04:37.497431 55708 net.cpp:137] Memory required for data: 346948096
I0316 12:04:37.497435 55708 layer_factory.hpp:77] Creating layer inception_8a/1x1
I0316 12:04:37.497458 55708 net.cpp:84] Creating Layer inception_8a/1x1
I0316 12:04:37.497463 55708 net.cpp:406] inception_8a/1x1 <- inception_7a/output_inception_7a/output_0_split_0
I0316 12:04:37.497470 55708 net.cpp:380] inception_8a/1x1 -> inception_8a/1x1
I0316 12:04:37.497742 55708 net.cpp:122] Setting up inception_8a/1x1
I0316 12:04:37.497748 55708 net.cpp:129] Top shape: 32 48 16 16 (393216)
I0316 12:04:37.497751 55708 net.cpp:137] Memory required for data: 348520960
I0316 12:04:37.497757 55708 layer_factory.hpp:77] Creating layer inception_8a/1x1/bn1
I0316 12:04:37.497763 55708 net.cpp:84] Creating Layer inception_8a/1x1/bn1
I0316 12:04:37.497766 55708 net.cpp:406] inception_8a/1x1/bn1 <- inception_8a/1x1
I0316 12:04:37.497771 55708 net.cpp:367] inception_8a/1x1/bn1 -> inception_8a/1x1 (in-place)
I0316 12:04:37.497929 55708 net.cpp:122] Setting up inception_8a/1x1/bn1
I0316 12:04:37.497936 55708 net.cpp:129] Top shape: 32 48 16 16 (393216)
I0316 12:04:37.497939 55708 net.cpp:137] Memory required for data: 350093824
I0316 12:04:37.497946 55708 layer_factory.hpp:77] Creating layer inception_8a/1x1/scale1
I0316 12:04:37.497951 55708 net.cpp:84] Creating Layer inception_8a/1x1/scale1
I0316 12:04:37.497954 55708 net.cpp:406] inception_8a/1x1/scale1 <- inception_8a/1x1
I0316 12:04:37.497959 55708 net.cpp:367] inception_8a/1x1/scale1 -> inception_8a/1x1 (in-place)
I0316 12:04:37.497987 55708 layer_factory.hpp:77] Creating layer inception_8a/1x1/scale1
I0316 12:04:37.498075 55708 net.cpp:122] Setting up inception_8a/1x1/scale1
I0316 12:04:37.498083 55708 net.cpp:129] Top shape: 32 48 16 16 (393216)
I0316 12:04:37.498086 55708 net.cpp:137] Memory required for data: 351666688
I0316 12:04:37.498090 55708 layer_factory.hpp:77] Creating layer inception_8a/1x1/relu1
I0316 12:04:37.498095 55708 net.cpp:84] Creating Layer inception_8a/1x1/relu1
I0316 12:04:37.498100 55708 net.cpp:406] inception_8a/1x1/relu1 <- inception_8a/1x1
I0316 12:04:37.498103 55708 net.cpp:367] inception_8a/1x1/relu1 -> inception_8a/1x1 (in-place)
I0316 12:04:37.498108 55708 net.cpp:122] Setting up inception_8a/1x1/relu1
I0316 12:04:37.498112 55708 net.cpp:129] Top shape: 32 48 16 16 (393216)
I0316 12:04:37.498116 55708 net.cpp:137] Memory required for data: 353239552
I0316 12:04:37.498118 55708 layer_factory.hpp:77] Creating layer inception_8a/3x3
I0316 12:04:37.498126 55708 net.cpp:84] Creating Layer inception_8a/3x3
I0316 12:04:37.498136 55708 net.cpp:406] inception_8a/3x3 <- inception_7a/output_inception_7a/output_0_split_1
I0316 12:04:37.498143 55708 net.cpp:380] inception_8a/3x3 -> inception_8a/3x3
I0316 12:04:37.500471 55708 net.cpp:122] Setting up inception_8a/3x3
I0316 12:04:37.500486 55708 net.cpp:129] Top shape: 32 96 16 16 (786432)
I0316 12:04:37.500489 55708 net.cpp:137] Memory required for data: 356385280
I0316 12:04:37.500497 55708 layer_factory.hpp:77] Creating layer inception_8a/3x3/bn1
I0316 12:04:37.500504 55708 net.cpp:84] Creating Layer inception_8a/3x3/bn1
I0316 12:04:37.500509 55708 net.cpp:406] inception_8a/3x3/bn1 <- inception_8a/3x3
I0316 12:04:37.500514 55708 net.cpp:367] inception_8a/3x3/bn1 -> inception_8a/3x3 (in-place)
I0316 12:04:37.500676 55708 net.cpp:122] Setting up inception_8a/3x3/bn1
I0316 12:04:37.500684 55708 net.cpp:129] Top shape: 32 96 16 16 (786432)
I0316 12:04:37.500686 55708 net.cpp:137] Memory required for data: 359531008
I0316 12:04:37.500692 55708 layer_factory.hpp:77] Creating layer inception_8a/3x3/scale1
I0316 12:04:37.500699 55708 net.cpp:84] Creating Layer inception_8a/3x3/scale1
I0316 12:04:37.500702 55708 net.cpp:406] inception_8a/3x3/scale1 <- inception_8a/3x3
I0316 12:04:37.500707 55708 net.cpp:367] inception_8a/3x3/scale1 -> inception_8a/3x3 (in-place)
I0316 12:04:37.500736 55708 layer_factory.hpp:77] Creating layer inception_8a/3x3/scale1
I0316 12:04:37.500829 55708 net.cpp:122] Setting up inception_8a/3x3/scale1
I0316 12:04:37.500836 55708 net.cpp:129] Top shape: 32 96 16 16 (786432)
I0316 12:04:37.500839 55708 net.cpp:137] Memory required for data: 362676736
I0316 12:04:37.500844 55708 layer_factory.hpp:77] Creating layer inception_8a/3x3/relu1
I0316 12:04:37.500849 55708 net.cpp:84] Creating Layer inception_8a/3x3/relu1
I0316 12:04:37.500852 55708 net.cpp:406] inception_8a/3x3/relu1 <- inception_8a/3x3
I0316 12:04:37.500857 55708 net.cpp:367] inception_8a/3x3/relu1 -> inception_8a/3x3 (in-place)
I0316 12:04:37.500861 55708 net.cpp:122] Setting up inception_8a/3x3/relu1
I0316 12:04:37.500866 55708 net.cpp:129] Top shape: 32 96 16 16 (786432)
I0316 12:04:37.500869 55708 net.cpp:137] Memory required for data: 365822464
I0316 12:04:37.500872 55708 layer_factory.hpp:77] Creating layer inception_8a/output
I0316 12:04:37.500877 55708 net.cpp:84] Creating Layer inception_8a/output
I0316 12:04:37.500881 55708 net.cpp:406] inception_8a/output <- inception_8a/1x1
I0316 12:04:37.500885 55708 net.cpp:406] inception_8a/output <- inception_8a/3x3
I0316 12:04:37.500890 55708 net.cpp:380] inception_8a/output -> inception_8a/output
I0316 12:04:37.500903 55708 net.cpp:122] Setting up inception_8a/output
I0316 12:04:37.500908 55708 net.cpp:129] Top shape: 32 144 16 16 (1179648)
I0316 12:04:37.500911 55708 net.cpp:137] Memory required for data: 370541056
I0316 12:04:37.500916 55708 layer_factory.hpp:77] Creating layer inception_8a/output_inception_8a/output_0_split
I0316 12:04:37.500921 55708 net.cpp:84] Creating Layer inception_8a/output_inception_8a/output_0_split
I0316 12:04:37.500924 55708 net.cpp:406] inception_8a/output_inception_8a/output_0_split <- inception_8a/output
I0316 12:04:37.500929 55708 net.cpp:380] inception_8a/output_inception_8a/output_0_split -> inception_8a/output_inception_8a/output_0_split_0
I0316 12:04:37.500934 55708 net.cpp:380] inception_8a/output_inception_8a/output_0_split -> inception_8a/output_inception_8a/output_0_split_1
I0316 12:04:37.500962 55708 net.cpp:122] Setting up inception_8a/output_inception_8a/output_0_split
I0316 12:04:37.500967 55708 net.cpp:129] Top shape: 32 144 16 16 (1179648)
I0316 12:04:37.500970 55708 net.cpp:129] Top shape: 32 144 16 16 (1179648)
I0316 12:04:37.500973 55708 net.cpp:137] Memory required for data: 379978240
I0316 12:04:37.500977 55708 layer_factory.hpp:77] Creating layer downsample_9/3x3_s2
I0316 12:04:37.500984 55708 net.cpp:84] Creating Layer downsample_9/3x3_s2
I0316 12:04:37.500988 55708 net.cpp:406] downsample_9/3x3_s2 <- inception_8a/output_inception_8a/output_0_split_0
I0316 12:04:37.501006 55708 net.cpp:380] downsample_9/3x3_s2 -> downsample_9/3x3_s2
I0316 12:04:37.502002 55708 net.cpp:122] Setting up downsample_9/3x3_s2
I0316 12:04:37.502010 55708 net.cpp:129] Top shape: 32 96 8 8 (196608)
I0316 12:04:37.502014 55708 net.cpp:137] Memory required for data: 380764672
I0316 12:04:37.502020 55708 layer_factory.hpp:77] Creating layer downsample_9/3x3_s2/bn1
I0316 12:04:37.502027 55708 net.cpp:84] Creating Layer downsample_9/3x3_s2/bn1
I0316 12:04:37.502032 55708 net.cpp:406] downsample_9/3x3_s2/bn1 <- downsample_9/3x3_s2
I0316 12:04:37.502036 55708 net.cpp:367] downsample_9/3x3_s2/bn1 -> downsample_9/3x3_s2 (in-place)
I0316 12:04:37.502198 55708 net.cpp:122] Setting up downsample_9/3x3_s2/bn1
I0316 12:04:37.502204 55708 net.cpp:129] Top shape: 32 96 8 8 (196608)
I0316 12:04:37.502208 55708 net.cpp:137] Memory required for data: 381551104
I0316 12:04:37.502215 55708 layer_factory.hpp:77] Creating layer downsample_9/3x3_s2/scale1
I0316 12:04:37.502220 55708 net.cpp:84] Creating Layer downsample_9/3x3_s2/scale1
I0316 12:04:37.502223 55708 net.cpp:406] downsample_9/3x3_s2/scale1 <- downsample_9/3x3_s2
I0316 12:04:37.502228 55708 net.cpp:367] downsample_9/3x3_s2/scale1 -> downsample_9/3x3_s2 (in-place)
I0316 12:04:37.502257 55708 layer_factory.hpp:77] Creating layer downsample_9/3x3_s2/scale1
I0316 12:04:37.502352 55708 net.cpp:122] Setting up downsample_9/3x3_s2/scale1
I0316 12:04:37.502358 55708 net.cpp:129] Top shape: 32 96 8 8 (196608)
I0316 12:04:37.502362 55708 net.cpp:137] Memory required for data: 382337536
I0316 12:04:37.502367 55708 layer_factory.hpp:77] Creating layer downsample_9/3x3_s2/relu1
I0316 12:04:37.502372 55708 net.cpp:84] Creating Layer downsample_9/3x3_s2/relu1
I0316 12:04:37.502374 55708 net.cpp:406] downsample_9/3x3_s2/relu1 <- downsample_9/3x3_s2
I0316 12:04:37.502380 55708 net.cpp:367] downsample_9/3x3_s2/relu1 -> downsample_9/3x3_s2 (in-place)
I0316 12:04:37.502384 55708 net.cpp:122] Setting up downsample_9/3x3_s2/relu1
I0316 12:04:37.502388 55708 net.cpp:129] Top shape: 32 96 8 8 (196608)
I0316 12:04:37.502393 55708 net.cpp:137] Memory required for data: 383123968
I0316 12:04:37.502396 55708 layer_factory.hpp:77] Creating layer downsample_9/pool_s2
I0316 12:04:37.502401 55708 net.cpp:84] Creating Layer downsample_9/pool_s2
I0316 12:04:37.502404 55708 net.cpp:406] downsample_9/pool_s2 <- inception_8a/output_inception_8a/output_0_split_1
I0316 12:04:37.502409 55708 net.cpp:380] downsample_9/pool_s2 -> downsample_9/pool_s2
I0316 12:04:37.502439 55708 net.cpp:122] Setting up downsample_9/pool_s2
I0316 12:04:37.502449 55708 net.cpp:129] Top shape: 32 144 8 8 (294912)
I0316 12:04:37.502450 55708 net.cpp:137] Memory required for data: 384303616
I0316 12:04:37.502454 55708 layer_factory.hpp:77] Creating layer downsample_9/output
I0316 12:04:37.502460 55708 net.cpp:84] Creating Layer downsample_9/output
I0316 12:04:37.502462 55708 net.cpp:406] downsample_9/output <- downsample_9/3x3_s2
I0316 12:04:37.502466 55708 net.cpp:406] downsample_9/output <- downsample_9/pool_s2
I0316 12:04:37.502471 55708 net.cpp:380] downsample_9/output -> downsample_9/output
I0316 12:04:37.502488 55708 net.cpp:122] Setting up downsample_9/output
I0316 12:04:37.502492 55708 net.cpp:129] Top shape: 32 240 8 8 (491520)
I0316 12:04:37.502496 55708 net.cpp:137] Memory required for data: 386269696
I0316 12:04:37.502498 55708 layer_factory.hpp:77] Creating layer downsample_9/output_downsample_9/output_0_split
I0316 12:04:37.502504 55708 net.cpp:84] Creating Layer downsample_9/output_downsample_9/output_0_split
I0316 12:04:37.502507 55708 net.cpp:406] downsample_9/output_downsample_9/output_0_split <- downsample_9/output
I0316 12:04:37.502512 55708 net.cpp:380] downsample_9/output_downsample_9/output_0_split -> downsample_9/output_downsample_9/output_0_split_0
I0316 12:04:37.502517 55708 net.cpp:380] downsample_9/output_downsample_9/output_0_split -> downsample_9/output_downsample_9/output_0_split_1
I0316 12:04:37.502547 55708 net.cpp:122] Setting up downsample_9/output_downsample_9/output_0_split
I0316 12:04:37.502552 55708 net.cpp:129] Top shape: 32 240 8 8 (491520)
I0316 12:04:37.502565 55708 net.cpp:129] Top shape: 32 240 8 8 (491520)
I0316 12:04:37.502568 55708 net.cpp:137] Memory required for data: 390201856
I0316 12:04:37.502571 55708 layer_factory.hpp:77] Creating layer inception_10a/1x1
I0316 12:04:37.502578 55708 net.cpp:84] Creating Layer inception_10a/1x1
I0316 12:04:37.502583 55708 net.cpp:406] inception_10a/1x1 <- downsample_9/output_downsample_9/output_0_split_0
I0316 12:04:37.502588 55708 net.cpp:380] inception_10a/1x1 -> inception_10a/1x1
I0316 12:04:37.503072 55708 net.cpp:122] Setting up inception_10a/1x1
I0316 12:04:37.503079 55708 net.cpp:129] Top shape: 32 176 8 8 (360448)
I0316 12:04:37.503082 55708 net.cpp:137] Memory required for data: 391643648
I0316 12:04:37.503088 55708 layer_factory.hpp:77] Creating layer inception_10a/1x1/bn1
I0316 12:04:37.503094 55708 net.cpp:84] Creating Layer inception_10a/1x1/bn1
I0316 12:04:37.503098 55708 net.cpp:406] inception_10a/1x1/bn1 <- inception_10a/1x1
I0316 12:04:37.503103 55708 net.cpp:367] inception_10a/1x1/bn1 -> inception_10a/1x1 (in-place)
I0316 12:04:37.503266 55708 net.cpp:122] Setting up inception_10a/1x1/bn1
I0316 12:04:37.503273 55708 net.cpp:129] Top shape: 32 176 8 8 (360448)
I0316 12:04:37.503276 55708 net.cpp:137] Memory required for data: 393085440
I0316 12:04:37.503283 55708 layer_factory.hpp:77] Creating layer inception_10a/1x1/scale1
I0316 12:04:37.503288 55708 net.cpp:84] Creating Layer inception_10a/1x1/scale1
I0316 12:04:37.503291 55708 net.cpp:406] inception_10a/1x1/scale1 <- inception_10a/1x1
I0316 12:04:37.503295 55708 net.cpp:367] inception_10a/1x1/scale1 -> inception_10a/1x1 (in-place)
I0316 12:04:37.503324 55708 layer_factory.hpp:77] Creating layer inception_10a/1x1/scale1
I0316 12:04:37.503420 55708 net.cpp:122] Setting up inception_10a/1x1/scale1
I0316 12:04:37.503427 55708 net.cpp:129] Top shape: 32 176 8 8 (360448)
I0316 12:04:37.503430 55708 net.cpp:137] Memory required for data: 394527232
I0316 12:04:37.503435 55708 layer_factory.hpp:77] Creating layer inception_10a/1x1/relu1
I0316 12:04:37.503439 55708 net.cpp:84] Creating Layer inception_10a/1x1/relu1
I0316 12:04:37.503443 55708 net.cpp:406] inception_10a/1x1/relu1 <- inception_10a/1x1
I0316 12:04:37.503448 55708 net.cpp:367] inception_10a/1x1/relu1 -> inception_10a/1x1 (in-place)
I0316 12:04:37.503453 55708 net.cpp:122] Setting up inception_10a/1x1/relu1
I0316 12:04:37.503456 55708 net.cpp:129] Top shape: 32 176 8 8 (360448)
I0316 12:04:37.503460 55708 net.cpp:137] Memory required for data: 395969024
I0316 12:04:37.503463 55708 layer_factory.hpp:77] Creating layer inception_10a/3x3
I0316 12:04:37.503469 55708 net.cpp:84] Creating Layer inception_10a/3x3
I0316 12:04:37.503473 55708 net.cpp:406] inception_10a/3x3 <- downsample_9/output_downsample_9/output_0_split_1
I0316 12:04:37.503479 55708 net.cpp:380] inception_10a/3x3 -> inception_10a/3x3
I0316 12:04:37.507509 55708 net.cpp:122] Setting up inception_10a/3x3
I0316 12:04:37.507524 55708 net.cpp:129] Top shape: 32 160 8 8 (327680)
I0316 12:04:37.507529 55708 net.cpp:137] Memory required for data: 397279744
I0316 12:04:37.507535 55708 layer_factory.hpp:77] Creating layer inception_10a/3x3/bn1
I0316 12:04:37.507542 55708 net.cpp:84] Creating Layer inception_10a/3x3/bn1
I0316 12:04:37.507546 55708 net.cpp:406] inception_10a/3x3/bn1 <- inception_10a/3x3
I0316 12:04:37.507552 55708 net.cpp:367] inception_10a/3x3/bn1 -> inception_10a/3x3 (in-place)
I0316 12:04:37.507714 55708 net.cpp:122] Setting up inception_10a/3x3/bn1
I0316 12:04:37.507720 55708 net.cpp:129] Top shape: 32 160 8 8 (327680)
I0316 12:04:37.507723 55708 net.cpp:137] Memory required for data: 398590464
I0316 12:04:37.507730 55708 layer_factory.hpp:77] Creating layer inception_10a/3x3/scale1
I0316 12:04:37.507736 55708 net.cpp:84] Creating Layer inception_10a/3x3/scale1
I0316 12:04:37.507740 55708 net.cpp:406] inception_10a/3x3/scale1 <- inception_10a/3x3
I0316 12:04:37.507745 55708 net.cpp:367] inception_10a/3x3/scale1 -> inception_10a/3x3 (in-place)
I0316 12:04:37.507773 55708 layer_factory.hpp:77] Creating layer inception_10a/3x3/scale1
I0316 12:04:37.507879 55708 net.cpp:122] Setting up inception_10a/3x3/scale1
I0316 12:04:37.507885 55708 net.cpp:129] Top shape: 32 160 8 8 (327680)
I0316 12:04:37.507889 55708 net.cpp:137] Memory required for data: 399901184
I0316 12:04:37.507894 55708 layer_factory.hpp:77] Creating layer inception_10a/3x3/relu1
I0316 12:04:37.507899 55708 net.cpp:84] Creating Layer inception_10a/3x3/relu1
I0316 12:04:37.507902 55708 net.cpp:406] inception_10a/3x3/relu1 <- inception_10a/3x3
I0316 12:04:37.507906 55708 net.cpp:367] inception_10a/3x3/relu1 -> inception_10a/3x3 (in-place)
I0316 12:04:37.507911 55708 net.cpp:122] Setting up inception_10a/3x3/relu1
I0316 12:04:37.507916 55708 net.cpp:129] Top shape: 32 160 8 8 (327680)
I0316 12:04:37.507920 55708 net.cpp:137] Memory required for data: 401211904
I0316 12:04:37.507922 55708 layer_factory.hpp:77] Creating layer inception_10a/output
I0316 12:04:37.507926 55708 net.cpp:84] Creating Layer inception_10a/output
I0316 12:04:37.507930 55708 net.cpp:406] inception_10a/output <- inception_10a/1x1
I0316 12:04:37.507934 55708 net.cpp:406] inception_10a/output <- inception_10a/3x3
I0316 12:04:37.507938 55708 net.cpp:380] inception_10a/output -> inception_10a/output
I0316 12:04:37.507956 55708 net.cpp:122] Setting up inception_10a/output
I0316 12:04:37.507961 55708 net.cpp:129] Top shape: 32 336 8 8 (688128)
I0316 12:04:37.507963 55708 net.cpp:137] Memory required for data: 403964416
I0316 12:04:37.507966 55708 layer_factory.hpp:77] Creating layer inception_10a/output_inception_10a/output_0_split
I0316 12:04:37.507972 55708 net.cpp:84] Creating Layer inception_10a/output_inception_10a/output_0_split
I0316 12:04:37.507977 55708 net.cpp:406] inception_10a/output_inception_10a/output_0_split <- inception_10a/output
I0316 12:04:37.507980 55708 net.cpp:380] inception_10a/output_inception_10a/output_0_split -> inception_10a/output_inception_10a/output_0_split_0
I0316 12:04:37.507987 55708 net.cpp:380] inception_10a/output_inception_10a/output_0_split -> inception_10a/output_inception_10a/output_0_split_1
I0316 12:04:37.508013 55708 net.cpp:122] Setting up inception_10a/output_inception_10a/output_0_split
I0316 12:04:37.508018 55708 net.cpp:129] Top shape: 32 336 8 8 (688128)
I0316 12:04:37.508021 55708 net.cpp:129] Top shape: 32 336 8 8 (688128)
I0316 12:04:37.508024 55708 net.cpp:137] Memory required for data: 409469440
I0316 12:04:37.508026 55708 layer_factory.hpp:77] Creating layer inception_11a/1x1
I0316 12:04:37.508034 55708 net.cpp:84] Creating Layer inception_11a/1x1
I0316 12:04:37.508038 55708 net.cpp:406] inception_11a/1x1 <- inception_10a/output_inception_10a/output_0_split_0
I0316 12:04:37.508044 55708 net.cpp:380] inception_11a/1x1 -> inception_11a/1x1
I0316 12:04:37.508608 55708 net.cpp:122] Setting up inception_11a/1x1
I0316 12:04:37.508618 55708 net.cpp:129] Top shape: 32 176 8 8 (360448)
I0316 12:04:37.508621 55708 net.cpp:137] Memory required for data: 410911232
I0316 12:04:37.508626 55708 layer_factory.hpp:77] Creating layer inception_11a/1x1/bn1
I0316 12:04:37.508632 55708 net.cpp:84] Creating Layer inception_11a/1x1/bn1
I0316 12:04:37.508637 55708 net.cpp:406] inception_11a/1x1/bn1 <- inception_11a/1x1
I0316 12:04:37.508642 55708 net.cpp:367] inception_11a/1x1/bn1 -> inception_11a/1x1 (in-place)
I0316 12:04:37.508800 55708 net.cpp:122] Setting up inception_11a/1x1/bn1
I0316 12:04:37.508805 55708 net.cpp:129] Top shape: 32 176 8 8 (360448)
I0316 12:04:37.508810 55708 net.cpp:137] Memory required for data: 412353024
I0316 12:04:37.508816 55708 layer_factory.hpp:77] Creating layer inception_11a/1x1/scale1
I0316 12:04:37.508821 55708 net.cpp:84] Creating Layer inception_11a/1x1/scale1
I0316 12:04:37.508824 55708 net.cpp:406] inception_11a/1x1/scale1 <- inception_11a/1x1
I0316 12:04:37.508829 55708 net.cpp:367] inception_11a/1x1/scale1 -> inception_11a/1x1 (in-place)
I0316 12:04:37.508857 55708 layer_factory.hpp:77] Creating layer inception_11a/1x1/scale1
I0316 12:04:37.508945 55708 net.cpp:122] Setting up inception_11a/1x1/scale1
I0316 12:04:37.508961 55708 net.cpp:129] Top shape: 32 176 8 8 (360448)
I0316 12:04:37.508965 55708 net.cpp:137] Memory required for data: 413794816
I0316 12:04:37.508970 55708 layer_factory.hpp:77] Creating layer inception_11a/1x1/relu1
I0316 12:04:37.508975 55708 net.cpp:84] Creating Layer inception_11a/1x1/relu1
I0316 12:04:37.508978 55708 net.cpp:406] inception_11a/1x1/relu1 <- inception_11a/1x1
I0316 12:04:37.508985 55708 net.cpp:367] inception_11a/1x1/relu1 -> inception_11a/1x1 (in-place)
I0316 12:04:37.508989 55708 net.cpp:122] Setting up inception_11a/1x1/relu1
I0316 12:04:37.508993 55708 net.cpp:129] Top shape: 32 176 8 8 (360448)
I0316 12:04:37.508996 55708 net.cpp:137] Memory required for data: 415236608
I0316 12:04:37.509001 55708 layer_factory.hpp:77] Creating layer inception_11a/3x3
I0316 12:04:37.509007 55708 net.cpp:84] Creating Layer inception_11a/3x3
I0316 12:04:37.509011 55708 net.cpp:406] inception_11a/3x3 <- inception_10a/output_inception_10a/output_0_split_1
I0316 12:04:37.509016 55708 net.cpp:380] inception_11a/3x3 -> inception_11a/3x3
I0316 12:04:37.513746 55708 net.cpp:122] Setting up inception_11a/3x3
I0316 12:04:37.513764 55708 net.cpp:129] Top shape: 32 160 8 8 (327680)
I0316 12:04:37.513768 55708 net.cpp:137] Memory required for data: 416547328
I0316 12:04:37.513775 55708 layer_factory.hpp:77] Creating layer inception_11a/3x3/bn1
I0316 12:04:37.513784 55708 net.cpp:84] Creating Layer inception_11a/3x3/bn1
I0316 12:04:37.513788 55708 net.cpp:406] inception_11a/3x3/bn1 <- inception_11a/3x3
I0316 12:04:37.513795 55708 net.cpp:367] inception_11a/3x3/bn1 -> inception_11a/3x3 (in-place)
I0316 12:04:37.513976 55708 net.cpp:122] Setting up inception_11a/3x3/bn1
I0316 12:04:37.513984 55708 net.cpp:129] Top shape: 32 160 8 8 (327680)
I0316 12:04:37.513988 55708 net.cpp:137] Memory required for data: 417858048
I0316 12:04:37.514005 55708 layer_factory.hpp:77] Creating layer inception_11a/3x3/scale1
I0316 12:04:37.514010 55708 net.cpp:84] Creating Layer inception_11a/3x3/scale1
I0316 12:04:37.514014 55708 net.cpp:406] inception_11a/3x3/scale1 <- inception_11a/3x3
I0316 12:04:37.514019 55708 net.cpp:367] inception_11a/3x3/scale1 -> inception_11a/3x3 (in-place)
I0316 12:04:37.514048 55708 layer_factory.hpp:77] Creating layer inception_11a/3x3/scale1
I0316 12:04:37.514138 55708 net.cpp:122] Setting up inception_11a/3x3/scale1
I0316 12:04:37.514145 55708 net.cpp:129] Top shape: 32 160 8 8 (327680)
I0316 12:04:37.514149 55708 net.cpp:137] Memory required for data: 419168768
I0316 12:04:37.514154 55708 layer_factory.hpp:77] Creating layer inception_11a/3x3/relu1
I0316 12:04:37.514158 55708 net.cpp:84] Creating Layer inception_11a/3x3/relu1
I0316 12:04:37.514163 55708 net.cpp:406] inception_11a/3x3/relu1 <- inception_11a/3x3
I0316 12:04:37.514168 55708 net.cpp:367] inception_11a/3x3/relu1 -> inception_11a/3x3 (in-place)
I0316 12:04:37.514171 55708 net.cpp:122] Setting up inception_11a/3x3/relu1
I0316 12:04:37.514175 55708 net.cpp:129] Top shape: 32 160 8 8 (327680)
I0316 12:04:37.514179 55708 net.cpp:137] Memory required for data: 420479488
I0316 12:04:37.514183 55708 layer_factory.hpp:77] Creating layer inception_11a/output
I0316 12:04:37.514186 55708 net.cpp:84] Creating Layer inception_11a/output
I0316 12:04:37.514189 55708 net.cpp:406] inception_11a/output <- inception_11a/1x1
I0316 12:04:37.514194 55708 net.cpp:406] inception_11a/output <- inception_11a/3x3
I0316 12:04:37.514199 55708 net.cpp:380] inception_11a/output -> inception_11a/output
I0316 12:04:37.514214 55708 net.cpp:122] Setting up inception_11a/output
I0316 12:04:37.514219 55708 net.cpp:129] Top shape: 32 336 8 8 (688128)
I0316 12:04:37.514223 55708 net.cpp:137] Memory required for data: 423232000
I0316 12:04:37.514225 55708 layer_factory.hpp:77] Creating layer avg_pool_12/8x8_s1
I0316 12:04:37.514230 55708 net.cpp:84] Creating Layer avg_pool_12/8x8_s1
I0316 12:04:37.514233 55708 net.cpp:406] avg_pool_12/8x8_s1 <- inception_11a/output
I0316 12:04:37.514240 55708 net.cpp:380] avg_pool_12/8x8_s1 -> avg_pool_12/8x8_s1
I0316 12:04:37.514256 55708 net.cpp:122] Setting up avg_pool_12/8x8_s1
I0316 12:04:37.514273 55708 net.cpp:129] Top shape: 32 336 1 1 (10752)
I0316 12:04:37.514276 55708 net.cpp:137] Memory required for data: 423275008
I0316 12:04:37.514281 55708 layer_factory.hpp:77] Creating layer drop_8x8_s1
I0316 12:04:37.514286 55708 net.cpp:84] Creating Layer drop_8x8_s1
I0316 12:04:37.514289 55708 net.cpp:406] drop_8x8_s1 <- avg_pool_12/8x8_s1
I0316 12:04:37.514293 55708 net.cpp:367] drop_8x8_s1 -> avg_pool_12/8x8_s1 (in-place)
I0316 12:04:37.514312 55708 net.cpp:122] Setting up drop_8x8_s1
I0316 12:04:37.514315 55708 net.cpp:129] Top shape: 32 336 1 1 (10752)
I0316 12:04:37.514318 55708 net.cpp:137] Memory required for data: 423318016
I0316 12:04:37.514322 55708 layer_factory.hpp:77] Creating layer latent
I0316 12:04:37.514328 55708 net.cpp:84] Creating Layer latent
I0316 12:04:37.514330 55708 net.cpp:406] latent <- avg_pool_12/8x8_s1
I0316 12:04:37.514335 55708 net.cpp:380] latent -> latent
I0316 12:04:37.514676 55708 net.cpp:122] Setting up latent
I0316 12:04:37.514690 55708 net.cpp:129] Top shape: 32 48 (1536)
I0316 12:04:37.514698 55708 net.cpp:137] Memory required for data: 423324160
I0316 12:04:37.514710 55708 layer_factory.hpp:77] Creating layer latent_sigmoid
I0316 12:04:37.514727 55708 net.cpp:84] Creating Layer latent_sigmoid
I0316 12:04:37.514737 55708 net.cpp:406] latent_sigmoid <- latent
I0316 12:04:37.514747 55708 net.cpp:380] latent_sigmoid -> latent_sigmoid
I0316 12:04:37.514778 55708 net.cpp:122] Setting up latent_sigmoid
I0316 12:04:37.514791 55708 net.cpp:129] Top shape: 32 48 (1536)
I0316 12:04:37.514799 55708 net.cpp:137] Memory required for data: 423330304
I0316 12:04:37.514804 55708 layer_factory.hpp:77] Creating layer latent_sigmoid_latent_sigmoid_0_split
I0316 12:04:37.514815 55708 net.cpp:84] Creating Layer latent_sigmoid_latent_sigmoid_0_split
I0316 12:04:37.514823 55708 net.cpp:406] latent_sigmoid_latent_sigmoid_0_split <- latent_sigmoid
I0316 12:04:37.514838 55708 net.cpp:380] latent_sigmoid_latent_sigmoid_0_split -> latent_sigmoid_latent_sigmoid_0_split_0
I0316 12:04:37.514851 55708 net.cpp:380] latent_sigmoid_latent_sigmoid_0_split -> latent_sigmoid_latent_sigmoid_0_split_1
I0316 12:04:37.514858 55708 net.cpp:380] latent_sigmoid_latent_sigmoid_0_split -> latent_sigmoid_latent_sigmoid_0_split_2
I0316 12:04:37.514863 55708 net.cpp:380] latent_sigmoid_latent_sigmoid_0_split -> latent_sigmoid_latent_sigmoid_0_split_3
I0316 12:04:37.514909 55708 net.cpp:122] Setting up latent_sigmoid_latent_sigmoid_0_split
I0316 12:04:37.514915 55708 net.cpp:129] Top shape: 32 48 (1536)
I0316 12:04:37.514919 55708 net.cpp:129] Top shape: 32 48 (1536)
I0316 12:04:37.514922 55708 net.cpp:129] Top shape: 32 48 (1536)
I0316 12:04:37.514926 55708 net.cpp:129] Top shape: 32 48 (1536)
I0316 12:04:37.514930 55708 net.cpp:137] Memory required for data: 423354880
I0316 12:04:37.514932 55708 layer_factory.hpp:77] Creating layer loss_1
I0316 12:04:37.514937 55708 net.cpp:84] Creating Layer loss_1
I0316 12:04:37.514941 55708 net.cpp:406] loss_1 <- latent_sigmoid_latent_sigmoid_0_split_0
I0316 12:04:37.514945 55708 net.cpp:406] loss_1 <- latent_sigmoid_latent_sigmoid_0_split_1
I0316 12:04:37.514950 55708 net.cpp:380] loss_1 -> loss: forcing-binary
I0316 12:04:37.514977 55708 net.cpp:122] Setting up loss_1
I0316 12:04:37.514984 55708 net.cpp:129] Top shape: (1)
I0316 12:04:37.514987 55708 net.cpp:132]     with loss weight 1
I0316 12:04:37.514997 55708 net.cpp:137] Memory required for data: 423354884
I0316 12:04:37.514999 55708 layer_factory.hpp:77] Creating layer latent_sigmoid_reshape
I0316 12:04:37.515007 55708 net.cpp:84] Creating Layer latent_sigmoid_reshape
I0316 12:04:37.515009 55708 net.cpp:406] latent_sigmoid_reshape <- latent_sigmoid_latent_sigmoid_0_split_2
I0316 12:04:37.515015 55708 net.cpp:380] latent_sigmoid_reshape -> latent_sigmoid_reshape
I0316 12:04:37.515074 55708 net.cpp:122] Setting up latent_sigmoid_reshape
I0316 12:04:37.515086 55708 net.cpp:129] Top shape: 32 1 1 48 (1536)
I0316 12:04:37.515089 55708 net.cpp:137] Memory required for data: 423361028
I0316 12:04:37.515110 55708 layer_factory.hpp:77] Creating layer latent_sigmoid_avg
I0316 12:04:37.515116 55708 net.cpp:84] Creating Layer latent_sigmoid_avg
I0316 12:04:37.515125 55708 net.cpp:406] latent_sigmoid_avg <- latent_sigmoid_reshape
I0316 12:04:37.515133 55708 net.cpp:380] latent_sigmoid_avg -> latent_sigmoid_avg
I0316 12:04:37.515173 55708 net.cpp:122] Setting up latent_sigmoid_avg
I0316 12:04:37.515180 55708 net.cpp:129] Top shape: 32 1 1 1 (32)
I0316 12:04:37.515184 55708 net.cpp:137] Memory required for data: 423361156
I0316 12:04:37.515187 55708 layer_factory.hpp:77] Creating layer latent_sigmoid_avg_latent_sigmoid_avg_0_split
I0316 12:04:37.515199 55708 net.cpp:84] Creating Layer latent_sigmoid_avg_latent_sigmoid_avg_0_split
I0316 12:04:37.515205 55708 net.cpp:406] latent_sigmoid_avg_latent_sigmoid_avg_0_split <- latent_sigmoid_avg
I0316 12:04:37.515218 55708 net.cpp:380] latent_sigmoid_avg_latent_sigmoid_avg_0_split -> latent_sigmoid_avg_latent_sigmoid_avg_0_split_0
I0316 12:04:37.515229 55708 net.cpp:380] latent_sigmoid_avg_latent_sigmoid_avg_0_split -> latent_sigmoid_avg_latent_sigmoid_avg_0_split_1
I0316 12:04:37.515290 55708 net.cpp:122] Setting up latent_sigmoid_avg_latent_sigmoid_avg_0_split
I0316 12:04:37.515305 55708 net.cpp:129] Top shape: 32 1 1 1 (32)
I0316 12:04:37.515311 55708 net.cpp:129] Top shape: 32 1 1 1 (32)
I0316 12:04:37.515314 55708 net.cpp:137] Memory required for data: 423361412
I0316 12:04:37.515318 55708 layer_factory.hpp:77] Creating layer loss_2
I0316 12:04:37.515329 55708 net.cpp:84] Creating Layer loss_2
I0316 12:04:37.515337 55708 net.cpp:406] loss_2 <- latent_sigmoid_avg_latent_sigmoid_avg_0_split_0
I0316 12:04:37.515341 55708 net.cpp:406] loss_2 <- latent_sigmoid_avg_latent_sigmoid_avg_0_split_1
I0316 12:04:37.515347 55708 net.cpp:380] loss_2 -> loss: 50%-fire-rate
I0316 12:04:37.515406 55708 net.cpp:122] Setting up loss_2
I0316 12:04:37.515416 55708 net.cpp:129] Top shape: (1)
I0316 12:04:37.515422 55708 net.cpp:132]     with loss weight 1
I0316 12:04:37.515432 55708 net.cpp:137] Memory required for data: 423361416
I0316 12:04:37.515436 55708 layer_factory.hpp:77] Creating layer fc10
I0316 12:04:37.515448 55708 net.cpp:84] Creating Layer fc10
I0316 12:04:37.515456 55708 net.cpp:406] fc10 <- latent_sigmoid_latent_sigmoid_0_split_3
I0316 12:04:37.515465 55708 net.cpp:380] fc10 -> fc10
I0316 12:04:37.515617 55708 net.cpp:122] Setting up fc10
I0316 12:04:37.515625 55708 net.cpp:129] Top shape: 32 10 (320)
I0316 12:04:37.515630 55708 net.cpp:137] Memory required for data: 423362696
I0316 12:04:37.515635 55708 layer_factory.hpp:77] Creating layer fc10_fc10_0_split
I0316 12:04:37.515641 55708 net.cpp:84] Creating Layer fc10_fc10_0_split
I0316 12:04:37.515647 55708 net.cpp:406] fc10_fc10_0_split <- fc10
I0316 12:04:37.515651 55708 net.cpp:380] fc10_fc10_0_split -> fc10_fc10_0_split_0
I0316 12:04:37.515659 55708 net.cpp:380] fc10_fc10_0_split -> fc10_fc10_0_split_1
I0316 12:04:37.515666 55708 net.cpp:380] fc10_fc10_0_split -> fc10_fc10_0_split_2
I0316 12:04:37.515714 55708 net.cpp:122] Setting up fc10_fc10_0_split
I0316 12:04:37.515722 55708 net.cpp:129] Top shape: 32 10 (320)
I0316 12:04:37.515728 55708 net.cpp:129] Top shape: 32 10 (320)
I0316 12:04:37.515734 55708 net.cpp:129] Top shape: 32 10 (320)
I0316 12:04:37.515740 55708 net.cpp:137] Memory required for data: 423366536
I0316 12:04:37.515748 55708 layer_factory.hpp:77] Creating layer loss
I0316 12:04:37.515756 55708 net.cpp:84] Creating Layer loss
I0316 12:04:37.515764 55708 net.cpp:406] loss <- fc10_fc10_0_split_0
I0316 12:04:37.515769 55708 net.cpp:406] loss <- label_data_1_split_0
I0316 12:04:37.515774 55708 net.cpp:380] loss -> loss
…
